program(1.0)
[buildInfo = dict<tensor<string, []>, tensor<string, []>>({{"coremlc-component-MIL", "4.28.4"}, {"coremlc-version", "1429.0.0"}})]
{
    func main<ios15>(tensor<fp32, [1, 3, 256, 256]> image) {
            tensor<fp32, []> image__scaled___y_0 = const()[name = tensor<string, []>("image__scaled___y_0"), val = tensor<fp32, []>(0x1.010102p-8)];
            tensor<fp32, [1, 3, 256, 256]> image__scaled__ = mul(x = image, y = image__scaled___y_0);
            tensor<string, []> efficientnetv2_s_stem_Pad_mode_0 = const()[name = tensor<string, []>("efficientnetv2_s_stem_Pad_mode_0"), val = tensor<string, []>("constant")];
            tensor<int32, [8]> pad_0_pad_0 = const()[name = tensor<string, []>("pad_0_pad_0"), val = tensor<int32, [8]>([0, 0, 0, 0, 1, 1, 1, 1])];
            tensor<string, []> image_to_fp16_dtype_0 = const()[name = tensor<string, []>("image_to_fp16_dtype_0"), val = tensor<string, []>("fp16")];
            tensor<fp16, []> efficientnetv2_s_stem_Pad_constant_val_0_to_fp16 = const()[name = tensor<string, []>("efficientnetv2_s_stem_Pad_constant_val_0_to_fp16"), val = tensor<fp16, []>(0x0p+0)];
            tensor<fp16, [1, 3, 256, 256]> cast_541 = cast(dtype = image_to_fp16_dtype_0, x = image__scaled__);
            tensor<fp16, [1, 3, 258, 258]> pad_0_cast = pad(constant_val = efficientnetv2_s_stem_Pad_constant_val_0_to_fp16, mode = efficientnetv2_s_stem_Pad_mode_0, pad = pad_0_pad_0, x = cast_541);
            tensor<string, []> efficientnetv2_s_stem_conv2d_Conv2Dx_pad_type_0 = const()[name = tensor<string, []>("efficientnetv2_s_stem_conv2d_Conv2Dx_pad_type_0"), val = tensor<string, []>("valid")];
            tensor<int32, [2]> efficientnetv2_s_stem_conv2d_Conv2Dx_strides_0 = const()[name = tensor<string, []>("efficientnetv2_s_stem_conv2d_Conv2Dx_strides_0"), val = tensor<int32, [2]>([2, 2])];
            tensor<int32, [2]> efficientnetv2_s_stem_conv2d_Conv2Dx_dilations_0 = const()[name = tensor<string, []>("efficientnetv2_s_stem_conv2d_Conv2Dx_dilations_0"), val = tensor<int32, [2]>([1, 1])];
            tensor<int32, []> efficientnetv2_s_stem_conv2d_Conv2Dx_groups_0 = const()[name = tensor<string, []>("efficientnetv2_s_stem_conv2d_Conv2Dx_groups_0"), val = tensor<int32, []>(1)];
            tensor<int32, [4]> efficientnetv2_s_stem_conv2d_Conv2Dx_pad_0 = const()[name = tensor<string, []>("efficientnetv2_s_stem_conv2d_Conv2Dx_pad_0"), val = tensor<int32, [4]>([0, 0, 0, 0])];
            tensor<fp16, [24, 3, 3, 3]> efficientnetv2_s_stem_tpu_batch_normalization_FusedBatchNormV3_nchw_weight_0_to_fp16 = const()[name = tensor<string, []>("efficientnetv2_s_stem_tpu_batch_normalization_FusedBatchNormV3_nchw_weight_0_to_fp16"), val = tensor<fp16, [24, 3, 3, 3]>(BLOBFILE(path = tensor<string, []>("@model_path/weights/weight.bin"), offset = tensor<uint64, []>(64)))];
            tensor<fp16, [24]> efficientnetv2_s_stem_tpu_batch_normalization_FusedBatchNormV3_nchw_bias_0_to_fp16 = const()[name = tensor<string, []>("efficientnetv2_s_stem_tpu_batch_normalization_FusedBatchNormV3_nchw_bias_0_to_fp16"), val = tensor<fp16, [24]>(BLOBFILE(path = tensor<string, []>("@model_path/weights/weight.bin"), offset = tensor<uint64, []>(1472)))];
            tensor<fp16, [1, 24, 128, 128]> efficientnetv2_s_stem_tpu_batch_normalization_FusedBatchNormV3_nchw_cast = conv(bias = efficientnetv2_s_stem_tpu_batch_normalization_FusedBatchNormV3_nchw_bias_0_to_fp16, dilations = efficientnetv2_s_stem_conv2d_Conv2Dx_dilations_0, groups = efficientnetv2_s_stem_conv2d_Conv2Dx_groups_0, pad = efficientnetv2_s_stem_conv2d_Conv2Dx_pad_0, pad_type = efficientnetv2_s_stem_conv2d_Conv2Dx_pad_type_0, strides = efficientnetv2_s_stem_conv2d_Conv2Dx_strides_0, weight = efficientnetv2_s_stem_tpu_batch_normalization_FusedBatchNormV3_nchw_weight_0_to_fp16, x = pad_0_cast);
            tensor<fp16, [1, 24, 128, 128]> efficientnetv2_s_stem_mul_1_cast = silu(x = efficientnetv2_s_stem_tpu_batch_normalization_FusedBatchNormV3_nchw_cast);
            tensor<string, []> efficientnetv2_s_blocks_0_Pad_mode_0 = const()[name = tensor<string, []>("efficientnetv2_s_blocks_0_Pad_mode_0"), val = tensor<string, []>("constant")];
            tensor<int32, [8]> pad_1_pad_0 = const()[name = tensor<string, []>("pad_1_pad_0"), val = tensor<int32, [8]>([0, 0, 0, 0, 1, 1, 1, 1])];
            tensor<fp16, []> efficientnetv2_s_blocks_0_Pad_constant_val_0_to_fp16 = const()[name = tensor<string, []>("efficientnetv2_s_blocks_0_Pad_constant_val_0_to_fp16"), val = tensor<fp16, []>(0x0p+0)];
            tensor<fp16, [1, 24, 130, 130]> pad_1_cast = pad(constant_val = efficientnetv2_s_blocks_0_Pad_constant_val_0_to_fp16, mode = efficientnetv2_s_blocks_0_Pad_mode_0, pad = pad_1_pad_0, x = efficientnetv2_s_stem_mul_1_cast);
            tensor<string, []> efficientnetv2_s_blocks_0_conv2d_Conv2Dx_pad_type_0 = const()[name = tensor<string, []>("efficientnetv2_s_blocks_0_conv2d_Conv2Dx_pad_type_0"), val = tensor<string, []>("valid")];
            tensor<int32, [2]> efficientnetv2_s_blocks_0_conv2d_Conv2Dx_strides_0 = const()[name = tensor<string, []>("efficientnetv2_s_blocks_0_conv2d_Conv2Dx_strides_0"), val = tensor<int32, [2]>([1, 1])];
            tensor<int32, [2]> efficientnetv2_s_blocks_0_conv2d_Conv2Dx_dilations_0 = const()[name = tensor<string, []>("efficientnetv2_s_blocks_0_conv2d_Conv2Dx_dilations_0"), val = tensor<int32, [2]>([1, 1])];
            tensor<int32, []> efficientnetv2_s_blocks_0_conv2d_Conv2Dx_groups_0 = const()[name = tensor<string, []>("efficientnetv2_s_blocks_0_conv2d_Conv2Dx_groups_0"), val = tensor<int32, []>(1)];
            tensor<int32, [4]> efficientnetv2_s_blocks_0_conv2d_Conv2Dx_pad_0 = const()[name = tensor<string, []>("efficientnetv2_s_blocks_0_conv2d_Conv2Dx_pad_0"), val = tensor<int32, [4]>([0, 0, 0, 0])];
            tensor<fp16, [24, 24, 3, 3]> efficientnetv2_s_blocks_0_tpu_batch_normalization_FusedBatchNormV3_nchw_weight_0_to_fp16 = const()[name = tensor<string, []>("efficientnetv2_s_blocks_0_tpu_batch_normalization_FusedBatchNormV3_nchw_weight_0_to_fp16"), val = tensor<fp16, [24, 24, 3, 3]>(BLOBFILE(path = tensor<string, []>("@model_path/weights/weight.bin"), offset = tensor<uint64, []>(1600)))];
            tensor<fp16, [24]> efficientnetv2_s_blocks_0_tpu_batch_normalization_FusedBatchNormV3_nchw_bias_0_to_fp16 = const()[name = tensor<string, []>("efficientnetv2_s_blocks_0_tpu_batch_normalization_FusedBatchNormV3_nchw_bias_0_to_fp16"), val = tensor<fp16, [24]>(BLOBFILE(path = tensor<string, []>("@model_path/weights/weight.bin"), offset = tensor<uint64, []>(12032)))];
            tensor<fp16, [1, 24, 128, 128]> efficientnetv2_s_blocks_0_tpu_batch_normalization_FusedBatchNormV3_nchw_cast = conv(bias = efficientnetv2_s_blocks_0_tpu_batch_normalization_FusedBatchNormV3_nchw_bias_0_to_fp16, dilations = efficientnetv2_s_blocks_0_conv2d_Conv2Dx_dilations_0, groups = efficientnetv2_s_blocks_0_conv2d_Conv2Dx_groups_0, pad = efficientnetv2_s_blocks_0_conv2d_Conv2Dx_pad_0, pad_type = efficientnetv2_s_blocks_0_conv2d_Conv2Dx_pad_type_0, strides = efficientnetv2_s_blocks_0_conv2d_Conv2Dx_strides_0, weight = efficientnetv2_s_blocks_0_tpu_batch_normalization_FusedBatchNormV3_nchw_weight_0_to_fp16, x = pad_1_cast);
            tensor<fp16, [1, 24, 128, 128]> efficientnetv2_s_blocks_0_mul_1_cast = silu(x = efficientnetv2_s_blocks_0_tpu_batch_normalization_FusedBatchNormV3_nchw_cast);
            tensor<fp16, [1, 24, 128, 128]> efficientnetv2_s_blocks_0_Add_cast = add(x = efficientnetv2_s_blocks_0_mul_1_cast, y = efficientnetv2_s_stem_mul_1_cast);
            tensor<string, []> efficientnetv2_s_blocks_1_Pad_mode_0 = const()[name = tensor<string, []>("efficientnetv2_s_blocks_1_Pad_mode_0"), val = tensor<string, []>("constant")];
            tensor<int32, [8]> pad_2_pad_0 = const()[name = tensor<string, []>("pad_2_pad_0"), val = tensor<int32, [8]>([0, 0, 0, 0, 1, 1, 1, 1])];
            tensor<fp16, []> efficientnetv2_s_blocks_1_Pad_constant_val_0_to_fp16 = const()[name = tensor<string, []>("efficientnetv2_s_blocks_1_Pad_constant_val_0_to_fp16"), val = tensor<fp16, []>(0x0p+0)];
            tensor<fp16, [1, 24, 130, 130]> pad_2_cast = pad(constant_val = efficientnetv2_s_blocks_1_Pad_constant_val_0_to_fp16, mode = efficientnetv2_s_blocks_1_Pad_mode_0, pad = pad_2_pad_0, x = efficientnetv2_s_blocks_0_Add_cast);
            tensor<string, []> efficientnetv2_s_blocks_1_conv2d_Conv2Dx_pad_type_0 = const()[name = tensor<string, []>("efficientnetv2_s_blocks_1_conv2d_Conv2Dx_pad_type_0"), val = tensor<string, []>("valid")];
            tensor<int32, [2]> efficientnetv2_s_blocks_1_conv2d_Conv2Dx_strides_0 = const()[name = tensor<string, []>("efficientnetv2_s_blocks_1_conv2d_Conv2Dx_strides_0"), val = tensor<int32, [2]>([1, 1])];
            tensor<int32, [2]> efficientnetv2_s_blocks_1_conv2d_Conv2Dx_dilations_0 = const()[name = tensor<string, []>("efficientnetv2_s_blocks_1_conv2d_Conv2Dx_dilations_0"), val = tensor<int32, [2]>([1, 1])];
            tensor<int32, []> efficientnetv2_s_blocks_1_conv2d_Conv2Dx_groups_0 = const()[name = tensor<string, []>("efficientnetv2_s_blocks_1_conv2d_Conv2Dx_groups_0"), val = tensor<int32, []>(1)];
            tensor<int32, [4]> efficientnetv2_s_blocks_1_conv2d_Conv2Dx_pad_0 = const()[name = tensor<string, []>("efficientnetv2_s_blocks_1_conv2d_Conv2Dx_pad_0"), val = tensor<int32, [4]>([0, 0, 0, 0])];
            tensor<fp16, [24, 24, 3, 3]> efficientnetv2_s_blocks_1_tpu_batch_normalization_FusedBatchNormV3_nchw_weight_0_to_fp16 = const()[name = tensor<string, []>("efficientnetv2_s_blocks_1_tpu_batch_normalization_FusedBatchNormV3_nchw_weight_0_to_fp16"), val = tensor<fp16, [24, 24, 3, 3]>(BLOBFILE(path = tensor<string, []>("@model_path/weights/weight.bin"), offset = tensor<uint64, []>(12160)))];
            tensor<fp16, [24]> efficientnetv2_s_blocks_1_tpu_batch_normalization_FusedBatchNormV3_nchw_bias_0_to_fp16 = const()[name = tensor<string, []>("efficientnetv2_s_blocks_1_tpu_batch_normalization_FusedBatchNormV3_nchw_bias_0_to_fp16"), val = tensor<fp16, [24]>(BLOBFILE(path = tensor<string, []>("@model_path/weights/weight.bin"), offset = tensor<uint64, []>(22592)))];
            tensor<fp16, [1, 24, 128, 128]> efficientnetv2_s_blocks_1_tpu_batch_normalization_FusedBatchNormV3_nchw_cast = conv(bias = efficientnetv2_s_blocks_1_tpu_batch_normalization_FusedBatchNormV3_nchw_bias_0_to_fp16, dilations = efficientnetv2_s_blocks_1_conv2d_Conv2Dx_dilations_0, groups = efficientnetv2_s_blocks_1_conv2d_Conv2Dx_groups_0, pad = efficientnetv2_s_blocks_1_conv2d_Conv2Dx_pad_0, pad_type = efficientnetv2_s_blocks_1_conv2d_Conv2Dx_pad_type_0, strides = efficientnetv2_s_blocks_1_conv2d_Conv2Dx_strides_0, weight = efficientnetv2_s_blocks_1_tpu_batch_normalization_FusedBatchNormV3_nchw_weight_0_to_fp16, x = pad_2_cast);
            tensor<fp16, [1, 24, 128, 128]> efficientnetv2_s_blocks_1_mul_1_cast = silu(x = efficientnetv2_s_blocks_1_tpu_batch_normalization_FusedBatchNormV3_nchw_cast);
            tensor<fp16, [1, 24, 128, 128]> efficientnetv2_s_blocks_1_Add_cast = add(x = efficientnetv2_s_blocks_1_mul_1_cast, y = efficientnetv2_s_blocks_0_Add_cast);
            tensor<string, []> efficientnetv2_s_blocks_2_Pad_mode_0 = const()[name = tensor<string, []>("efficientnetv2_s_blocks_2_Pad_mode_0"), val = tensor<string, []>("constant")];
            tensor<int32, [8]> pad_3_pad_0 = const()[name = tensor<string, []>("pad_3_pad_0"), val = tensor<int32, [8]>([0, 0, 0, 0, 1, 1, 1, 1])];
            tensor<fp16, []> efficientnetv2_s_blocks_2_Pad_constant_val_0_to_fp16 = const()[name = tensor<string, []>("efficientnetv2_s_blocks_2_Pad_constant_val_0_to_fp16"), val = tensor<fp16, []>(0x0p+0)];
            tensor<fp16, [1, 24, 130, 130]> pad_3_cast = pad(constant_val = efficientnetv2_s_blocks_2_Pad_constant_val_0_to_fp16, mode = efficientnetv2_s_blocks_2_Pad_mode_0, pad = pad_3_pad_0, x = efficientnetv2_s_blocks_1_Add_cast);
            tensor<string, []> efficientnetv2_s_blocks_2_conv2d_Conv2Dx_pad_type_0 = const()[name = tensor<string, []>("efficientnetv2_s_blocks_2_conv2d_Conv2Dx_pad_type_0"), val = tensor<string, []>("valid")];
            tensor<int32, [2]> efficientnetv2_s_blocks_2_conv2d_Conv2Dx_strides_0 = const()[name = tensor<string, []>("efficientnetv2_s_blocks_2_conv2d_Conv2Dx_strides_0"), val = tensor<int32, [2]>([2, 2])];
            tensor<int32, [2]> efficientnetv2_s_blocks_2_conv2d_Conv2Dx_dilations_0 = const()[name = tensor<string, []>("efficientnetv2_s_blocks_2_conv2d_Conv2Dx_dilations_0"), val = tensor<int32, [2]>([1, 1])];
            tensor<int32, []> efficientnetv2_s_blocks_2_conv2d_Conv2Dx_groups_0 = const()[name = tensor<string, []>("efficientnetv2_s_blocks_2_conv2d_Conv2Dx_groups_0"), val = tensor<int32, []>(1)];
            tensor<int32, [4]> efficientnetv2_s_blocks_2_conv2d_Conv2Dx_pad_0 = const()[name = tensor<string, []>("efficientnetv2_s_blocks_2_conv2d_Conv2Dx_pad_0"), val = tensor<int32, [4]>([0, 0, 0, 0])];
            tensor<fp16, [96, 24, 3, 3]> efficientnetv2_s_blocks_2_tpu_batch_normalization_FusedBatchNormV3_nchw_weight_0_to_fp16 = const()[name = tensor<string, []>("efficientnetv2_s_blocks_2_tpu_batch_normalization_FusedBatchNormV3_nchw_weight_0_to_fp16"), val = tensor<fp16, [96, 24, 3, 3]>(BLOBFILE(path = tensor<string, []>("@model_path/weights/weight.bin"), offset = tensor<uint64, []>(22720)))];
            tensor<fp16, [96]> efficientnetv2_s_blocks_2_tpu_batch_normalization_FusedBatchNormV3_nchw_bias_0_to_fp16 = const()[name = tensor<string, []>("efficientnetv2_s_blocks_2_tpu_batch_normalization_FusedBatchNormV3_nchw_bias_0_to_fp16"), val = tensor<fp16, [96]>(BLOBFILE(path = tensor<string, []>("@model_path/weights/weight.bin"), offset = tensor<uint64, []>(64256)))];
            tensor<fp16, [1, 96, 64, 64]> efficientnetv2_s_blocks_2_tpu_batch_normalization_FusedBatchNormV3_nchw_cast = conv(bias = efficientnetv2_s_blocks_2_tpu_batch_normalization_FusedBatchNormV3_nchw_bias_0_to_fp16, dilations = efficientnetv2_s_blocks_2_conv2d_Conv2Dx_dilations_0, groups = efficientnetv2_s_blocks_2_conv2d_Conv2Dx_groups_0, pad = efficientnetv2_s_blocks_2_conv2d_Conv2Dx_pad_0, pad_type = efficientnetv2_s_blocks_2_conv2d_Conv2Dx_pad_type_0, strides = efficientnetv2_s_blocks_2_conv2d_Conv2Dx_strides_0, weight = efficientnetv2_s_blocks_2_tpu_batch_normalization_FusedBatchNormV3_nchw_weight_0_to_fp16, x = pad_3_cast);
            tensor<fp16, [1, 96, 64, 64]> efficientnetv2_s_blocks_2_mul_1_cast = silu(x = efficientnetv2_s_blocks_2_tpu_batch_normalization_FusedBatchNormV3_nchw_cast);
            tensor<string, []> efficientnetv2_s_blocks_2_conv2d_1_Conv2Dx_pad_type_0 = const()[name = tensor<string, []>("efficientnetv2_s_blocks_2_conv2d_1_Conv2Dx_pad_type_0"), val = tensor<string, []>("valid")];
            tensor<int32, [2]> efficientnetv2_s_blocks_2_conv2d_1_Conv2Dx_strides_0 = const()[name = tensor<string, []>("efficientnetv2_s_blocks_2_conv2d_1_Conv2Dx_strides_0"), val = tensor<int32, [2]>([1, 1])];
            tensor<int32, [2]> efficientnetv2_s_blocks_2_conv2d_1_Conv2Dx_dilations_0 = const()[name = tensor<string, []>("efficientnetv2_s_blocks_2_conv2d_1_Conv2Dx_dilations_0"), val = tensor<int32, [2]>([1, 1])];
            tensor<int32, []> efficientnetv2_s_blocks_2_conv2d_1_Conv2Dx_groups_0 = const()[name = tensor<string, []>("efficientnetv2_s_blocks_2_conv2d_1_Conv2Dx_groups_0"), val = tensor<int32, []>(1)];
            tensor<int32, [4]> efficientnetv2_s_blocks_2_conv2d_1_Conv2Dx_pad_0 = const()[name = tensor<string, []>("efficientnetv2_s_blocks_2_conv2d_1_Conv2Dx_pad_0"), val = tensor<int32, [4]>([0, 0, 0, 0])];
            tensor<fp16, [48, 96, 1, 1]> efficientnetv2_s_blocks_2_tpu_batch_normalization_1_FusedBatchNormV3_nchw_weight_0_to_fp16 = const()[name = tensor<string, []>("efficientnetv2_s_blocks_2_tpu_batch_normalization_1_FusedBatchNormV3_nchw_weight_0_to_fp16"), val = tensor<fp16, [48, 96, 1, 1]>(BLOBFILE(path = tensor<string, []>("@model_path/weights/weight.bin"), offset = tensor<uint64, []>(64512)))];
            tensor<fp16, [48]> efficientnetv2_s_blocks_2_tpu_batch_normalization_1_FusedBatchNormV3_nchw_bias_0_to_fp16 = const()[name = tensor<string, []>("efficientnetv2_s_blocks_2_tpu_batch_normalization_1_FusedBatchNormV3_nchw_bias_0_to_fp16"), val = tensor<fp16, [48]>(BLOBFILE(path = tensor<string, []>("@model_path/weights/weight.bin"), offset = tensor<uint64, []>(73792)))];
            tensor<fp16, [1, 48, 64, 64]> efficientnetv2_s_blocks_2_tpu_batch_normalization_1_FusedBatchNormV3_nchw_cast = conv(bias = efficientnetv2_s_blocks_2_tpu_batch_normalization_1_FusedBatchNormV3_nchw_bias_0_to_fp16, dilations = efficientnetv2_s_blocks_2_conv2d_1_Conv2Dx_dilations_0, groups = efficientnetv2_s_blocks_2_conv2d_1_Conv2Dx_groups_0, pad = efficientnetv2_s_blocks_2_conv2d_1_Conv2Dx_pad_0, pad_type = efficientnetv2_s_blocks_2_conv2d_1_Conv2Dx_pad_type_0, strides = efficientnetv2_s_blocks_2_conv2d_1_Conv2Dx_strides_0, weight = efficientnetv2_s_blocks_2_tpu_batch_normalization_1_FusedBatchNormV3_nchw_weight_0_to_fp16, x = efficientnetv2_s_blocks_2_mul_1_cast);
            tensor<string, []> efficientnetv2_s_blocks_3_Pad_mode_0 = const()[name = tensor<string, []>("efficientnetv2_s_blocks_3_Pad_mode_0"), val = tensor<string, []>("constant")];
            tensor<int32, [8]> pad_4_pad_0 = const()[name = tensor<string, []>("pad_4_pad_0"), val = tensor<int32, [8]>([0, 0, 0, 0, 1, 1, 1, 1])];
            tensor<fp16, []> efficientnetv2_s_blocks_3_Pad_constant_val_0_to_fp16 = const()[name = tensor<string, []>("efficientnetv2_s_blocks_3_Pad_constant_val_0_to_fp16"), val = tensor<fp16, []>(0x0p+0)];
            tensor<fp16, [1, 48, 66, 66]> pad_4_cast = pad(constant_val = efficientnetv2_s_blocks_3_Pad_constant_val_0_to_fp16, mode = efficientnetv2_s_blocks_3_Pad_mode_0, pad = pad_4_pad_0, x = efficientnetv2_s_blocks_2_tpu_batch_normalization_1_FusedBatchNormV3_nchw_cast);
            tensor<string, []> efficientnetv2_s_blocks_3_conv2d_Conv2Dx_pad_type_0 = const()[name = tensor<string, []>("efficientnetv2_s_blocks_3_conv2d_Conv2Dx_pad_type_0"), val = tensor<string, []>("valid")];
            tensor<int32, [2]> efficientnetv2_s_blocks_3_conv2d_Conv2Dx_strides_0 = const()[name = tensor<string, []>("efficientnetv2_s_blocks_3_conv2d_Conv2Dx_strides_0"), val = tensor<int32, [2]>([1, 1])];
            tensor<int32, [2]> efficientnetv2_s_blocks_3_conv2d_Conv2Dx_dilations_0 = const()[name = tensor<string, []>("efficientnetv2_s_blocks_3_conv2d_Conv2Dx_dilations_0"), val = tensor<int32, [2]>([1, 1])];
            tensor<int32, []> efficientnetv2_s_blocks_3_conv2d_Conv2Dx_groups_0 = const()[name = tensor<string, []>("efficientnetv2_s_blocks_3_conv2d_Conv2Dx_groups_0"), val = tensor<int32, []>(1)];
            tensor<int32, [4]> efficientnetv2_s_blocks_3_conv2d_Conv2Dx_pad_0 = const()[name = tensor<string, []>("efficientnetv2_s_blocks_3_conv2d_Conv2Dx_pad_0"), val = tensor<int32, [4]>([0, 0, 0, 0])];
            tensor<fp16, [192, 48, 3, 3]> efficientnetv2_s_blocks_3_tpu_batch_normalization_FusedBatchNormV3_nchw_weight_0_to_fp16 = const()[name = tensor<string, []>("efficientnetv2_s_blocks_3_tpu_batch_normalization_FusedBatchNormV3_nchw_weight_0_to_fp16"), val = tensor<fp16, [192, 48, 3, 3]>(BLOBFILE(path = tensor<string, []>("@model_path/weights/weight.bin"), offset = tensor<uint64, []>(73984)))];
            tensor<fp16, [192]> efficientnetv2_s_blocks_3_tpu_batch_normalization_FusedBatchNormV3_nchw_bias_0_to_fp16 = const()[name = tensor<string, []>("efficientnetv2_s_blocks_3_tpu_batch_normalization_FusedBatchNormV3_nchw_bias_0_to_fp16"), val = tensor<fp16, [192]>(BLOBFILE(path = tensor<string, []>("@model_path/weights/weight.bin"), offset = tensor<uint64, []>(239936)))];
            tensor<fp16, [1, 192, 64, 64]> efficientnetv2_s_blocks_3_tpu_batch_normalization_FusedBatchNormV3_nchw_cast = conv(bias = efficientnetv2_s_blocks_3_tpu_batch_normalization_FusedBatchNormV3_nchw_bias_0_to_fp16, dilations = efficientnetv2_s_blocks_3_conv2d_Conv2Dx_dilations_0, groups = efficientnetv2_s_blocks_3_conv2d_Conv2Dx_groups_0, pad = efficientnetv2_s_blocks_3_conv2d_Conv2Dx_pad_0, pad_type = efficientnetv2_s_blocks_3_conv2d_Conv2Dx_pad_type_0, strides = efficientnetv2_s_blocks_3_conv2d_Conv2Dx_strides_0, weight = efficientnetv2_s_blocks_3_tpu_batch_normalization_FusedBatchNormV3_nchw_weight_0_to_fp16, x = pad_4_cast);
            tensor<fp16, [1, 192, 64, 64]> efficientnetv2_s_blocks_3_mul_1_cast = silu(x = efficientnetv2_s_blocks_3_tpu_batch_normalization_FusedBatchNormV3_nchw_cast);
            tensor<string, []> efficientnetv2_s_blocks_3_conv2d_1_Conv2Dx_pad_type_0 = const()[name = tensor<string, []>("efficientnetv2_s_blocks_3_conv2d_1_Conv2Dx_pad_type_0"), val = tensor<string, []>("valid")];
            tensor<int32, [2]> efficientnetv2_s_blocks_3_conv2d_1_Conv2Dx_strides_0 = const()[name = tensor<string, []>("efficientnetv2_s_blocks_3_conv2d_1_Conv2Dx_strides_0"), val = tensor<int32, [2]>([1, 1])];
            tensor<int32, [2]> efficientnetv2_s_blocks_3_conv2d_1_Conv2Dx_dilations_0 = const()[name = tensor<string, []>("efficientnetv2_s_blocks_3_conv2d_1_Conv2Dx_dilations_0"), val = tensor<int32, [2]>([1, 1])];
            tensor<int32, []> efficientnetv2_s_blocks_3_conv2d_1_Conv2Dx_groups_0 = const()[name = tensor<string, []>("efficientnetv2_s_blocks_3_conv2d_1_Conv2Dx_groups_0"), val = tensor<int32, []>(1)];
            tensor<int32, [4]> efficientnetv2_s_blocks_3_conv2d_1_Conv2Dx_pad_0 = const()[name = tensor<string, []>("efficientnetv2_s_blocks_3_conv2d_1_Conv2Dx_pad_0"), val = tensor<int32, [4]>([0, 0, 0, 0])];
            tensor<fp16, [48, 192, 1, 1]> efficientnetv2_s_blocks_3_tpu_batch_normalization_1_FusedBatchNormV3_nchw_weight_0_to_fp16 = const()[name = tensor<string, []>("efficientnetv2_s_blocks_3_tpu_batch_normalization_1_FusedBatchNormV3_nchw_weight_0_to_fp16"), val = tensor<fp16, [48, 192, 1, 1]>(BLOBFILE(path = tensor<string, []>("@model_path/weights/weight.bin"), offset = tensor<uint64, []>(240384)))];
            tensor<fp16, [48]> efficientnetv2_s_blocks_3_tpu_batch_normalization_1_FusedBatchNormV3_nchw_bias_0_to_fp16 = const()[name = tensor<string, []>("efficientnetv2_s_blocks_3_tpu_batch_normalization_1_FusedBatchNormV3_nchw_bias_0_to_fp16"), val = tensor<fp16, [48]>(BLOBFILE(path = tensor<string, []>("@model_path/weights/weight.bin"), offset = tensor<uint64, []>(258880)))];
            tensor<fp16, [1, 48, 64, 64]> efficientnetv2_s_blocks_3_tpu_batch_normalization_1_FusedBatchNormV3_nchw_cast = conv(bias = efficientnetv2_s_blocks_3_tpu_batch_normalization_1_FusedBatchNormV3_nchw_bias_0_to_fp16, dilations = efficientnetv2_s_blocks_3_conv2d_1_Conv2Dx_dilations_0, groups = efficientnetv2_s_blocks_3_conv2d_1_Conv2Dx_groups_0, pad = efficientnetv2_s_blocks_3_conv2d_1_Conv2Dx_pad_0, pad_type = efficientnetv2_s_blocks_3_conv2d_1_Conv2Dx_pad_type_0, strides = efficientnetv2_s_blocks_3_conv2d_1_Conv2Dx_strides_0, weight = efficientnetv2_s_blocks_3_tpu_batch_normalization_1_FusedBatchNormV3_nchw_weight_0_to_fp16, x = efficientnetv2_s_blocks_3_mul_1_cast);
            tensor<fp16, [1, 48, 64, 64]> efficientnetv2_s_blocks_3_Add_cast = add(x = efficientnetv2_s_blocks_3_tpu_batch_normalization_1_FusedBatchNormV3_nchw_cast, y = efficientnetv2_s_blocks_2_tpu_batch_normalization_1_FusedBatchNormV3_nchw_cast);
            tensor<string, []> efficientnetv2_s_blocks_4_Pad_mode_0 = const()[name = tensor<string, []>("efficientnetv2_s_blocks_4_Pad_mode_0"), val = tensor<string, []>("constant")];
            tensor<int32, [8]> pad_5_pad_0 = const()[name = tensor<string, []>("pad_5_pad_0"), val = tensor<int32, [8]>([0, 0, 0, 0, 1, 1, 1, 1])];
            tensor<fp16, []> efficientnetv2_s_blocks_4_Pad_constant_val_0_to_fp16 = const()[name = tensor<string, []>("efficientnetv2_s_blocks_4_Pad_constant_val_0_to_fp16"), val = tensor<fp16, []>(0x0p+0)];
            tensor<fp16, [1, 48, 66, 66]> pad_5_cast = pad(constant_val = efficientnetv2_s_blocks_4_Pad_constant_val_0_to_fp16, mode = efficientnetv2_s_blocks_4_Pad_mode_0, pad = pad_5_pad_0, x = efficientnetv2_s_blocks_3_Add_cast);
            tensor<string, []> efficientnetv2_s_blocks_4_conv2d_Conv2Dx_pad_type_0 = const()[name = tensor<string, []>("efficientnetv2_s_blocks_4_conv2d_Conv2Dx_pad_type_0"), val = tensor<string, []>("valid")];
            tensor<int32, [2]> efficientnetv2_s_blocks_4_conv2d_Conv2Dx_strides_0 = const()[name = tensor<string, []>("efficientnetv2_s_blocks_4_conv2d_Conv2Dx_strides_0"), val = tensor<int32, [2]>([1, 1])];
            tensor<int32, [2]> efficientnetv2_s_blocks_4_conv2d_Conv2Dx_dilations_0 = const()[name = tensor<string, []>("efficientnetv2_s_blocks_4_conv2d_Conv2Dx_dilations_0"), val = tensor<int32, [2]>([1, 1])];
            tensor<int32, []> efficientnetv2_s_blocks_4_conv2d_Conv2Dx_groups_0 = const()[name = tensor<string, []>("efficientnetv2_s_blocks_4_conv2d_Conv2Dx_groups_0"), val = tensor<int32, []>(1)];
            tensor<int32, [4]> efficientnetv2_s_blocks_4_conv2d_Conv2Dx_pad_0 = const()[name = tensor<string, []>("efficientnetv2_s_blocks_4_conv2d_Conv2Dx_pad_0"), val = tensor<int32, [4]>([0, 0, 0, 0])];
            tensor<fp16, [192, 48, 3, 3]> efficientnetv2_s_blocks_4_tpu_batch_normalization_FusedBatchNormV3_nchw_weight_0_to_fp16 = const()[name = tensor<string, []>("efficientnetv2_s_blocks_4_tpu_batch_normalization_FusedBatchNormV3_nchw_weight_0_to_fp16"), val = tensor<fp16, [192, 48, 3, 3]>(BLOBFILE(path = tensor<string, []>("@model_path/weights/weight.bin"), offset = tensor<uint64, []>(259072)))];
            tensor<fp16, [192]> efficientnetv2_s_blocks_4_tpu_batch_normalization_FusedBatchNormV3_nchw_bias_0_to_fp16 = const()[name = tensor<string, []>("efficientnetv2_s_blocks_4_tpu_batch_normalization_FusedBatchNormV3_nchw_bias_0_to_fp16"), val = tensor<fp16, [192]>(BLOBFILE(path = tensor<string, []>("@model_path/weights/weight.bin"), offset = tensor<uint64, []>(425024)))];
            tensor<fp16, [1, 192, 64, 64]> efficientnetv2_s_blocks_4_tpu_batch_normalization_FusedBatchNormV3_nchw_cast = conv(bias = efficientnetv2_s_blocks_4_tpu_batch_normalization_FusedBatchNormV3_nchw_bias_0_to_fp16, dilations = efficientnetv2_s_blocks_4_conv2d_Conv2Dx_dilations_0, groups = efficientnetv2_s_blocks_4_conv2d_Conv2Dx_groups_0, pad = efficientnetv2_s_blocks_4_conv2d_Conv2Dx_pad_0, pad_type = efficientnetv2_s_blocks_4_conv2d_Conv2Dx_pad_type_0, strides = efficientnetv2_s_blocks_4_conv2d_Conv2Dx_strides_0, weight = efficientnetv2_s_blocks_4_tpu_batch_normalization_FusedBatchNormV3_nchw_weight_0_to_fp16, x = pad_5_cast);
            tensor<fp16, [1, 192, 64, 64]> efficientnetv2_s_blocks_4_mul_1_cast = silu(x = efficientnetv2_s_blocks_4_tpu_batch_normalization_FusedBatchNormV3_nchw_cast);
            tensor<string, []> efficientnetv2_s_blocks_4_conv2d_1_Conv2Dx_pad_type_0 = const()[name = tensor<string, []>("efficientnetv2_s_blocks_4_conv2d_1_Conv2Dx_pad_type_0"), val = tensor<string, []>("valid")];
            tensor<int32, [2]> efficientnetv2_s_blocks_4_conv2d_1_Conv2Dx_strides_0 = const()[name = tensor<string, []>("efficientnetv2_s_blocks_4_conv2d_1_Conv2Dx_strides_0"), val = tensor<int32, [2]>([1, 1])];
            tensor<int32, [2]> efficientnetv2_s_blocks_4_conv2d_1_Conv2Dx_dilations_0 = const()[name = tensor<string, []>("efficientnetv2_s_blocks_4_conv2d_1_Conv2Dx_dilations_0"), val = tensor<int32, [2]>([1, 1])];
            tensor<int32, []> efficientnetv2_s_blocks_4_conv2d_1_Conv2Dx_groups_0 = const()[name = tensor<string, []>("efficientnetv2_s_blocks_4_conv2d_1_Conv2Dx_groups_0"), val = tensor<int32, []>(1)];
            tensor<int32, [4]> efficientnetv2_s_blocks_4_conv2d_1_Conv2Dx_pad_0 = const()[name = tensor<string, []>("efficientnetv2_s_blocks_4_conv2d_1_Conv2Dx_pad_0"), val = tensor<int32, [4]>([0, 0, 0, 0])];
            tensor<fp16, [48, 192, 1, 1]> efficientnetv2_s_blocks_4_tpu_batch_normalization_1_FusedBatchNormV3_nchw_weight_0_to_fp16 = const()[name = tensor<string, []>("efficientnetv2_s_blocks_4_tpu_batch_normalization_1_FusedBatchNormV3_nchw_weight_0_to_fp16"), val = tensor<fp16, [48, 192, 1, 1]>(BLOBFILE(path = tensor<string, []>("@model_path/weights/weight.bin"), offset = tensor<uint64, []>(425472)))];
            tensor<fp16, [48]> efficientnetv2_s_blocks_4_tpu_batch_normalization_1_FusedBatchNormV3_nchw_bias_0_to_fp16 = const()[name = tensor<string, []>("efficientnetv2_s_blocks_4_tpu_batch_normalization_1_FusedBatchNormV3_nchw_bias_0_to_fp16"), val = tensor<fp16, [48]>(BLOBFILE(path = tensor<string, []>("@model_path/weights/weight.bin"), offset = tensor<uint64, []>(443968)))];
            tensor<fp16, [1, 48, 64, 64]> efficientnetv2_s_blocks_4_tpu_batch_normalization_1_FusedBatchNormV3_nchw_cast = conv(bias = efficientnetv2_s_blocks_4_tpu_batch_normalization_1_FusedBatchNormV3_nchw_bias_0_to_fp16, dilations = efficientnetv2_s_blocks_4_conv2d_1_Conv2Dx_dilations_0, groups = efficientnetv2_s_blocks_4_conv2d_1_Conv2Dx_groups_0, pad = efficientnetv2_s_blocks_4_conv2d_1_Conv2Dx_pad_0, pad_type = efficientnetv2_s_blocks_4_conv2d_1_Conv2Dx_pad_type_0, strides = efficientnetv2_s_blocks_4_conv2d_1_Conv2Dx_strides_0, weight = efficientnetv2_s_blocks_4_tpu_batch_normalization_1_FusedBatchNormV3_nchw_weight_0_to_fp16, x = efficientnetv2_s_blocks_4_mul_1_cast);
            tensor<fp16, [1, 48, 64, 64]> efficientnetv2_s_blocks_4_Add_cast = add(x = efficientnetv2_s_blocks_4_tpu_batch_normalization_1_FusedBatchNormV3_nchw_cast, y = efficientnetv2_s_blocks_3_Add_cast);
            tensor<string, []> efficientnetv2_s_blocks_5_Pad_mode_0 = const()[name = tensor<string, []>("efficientnetv2_s_blocks_5_Pad_mode_0"), val = tensor<string, []>("constant")];
            tensor<int32, [8]> pad_6_pad_0 = const()[name = tensor<string, []>("pad_6_pad_0"), val = tensor<int32, [8]>([0, 0, 0, 0, 1, 1, 1, 1])];
            tensor<fp16, []> efficientnetv2_s_blocks_5_Pad_constant_val_0_to_fp16 = const()[name = tensor<string, []>("efficientnetv2_s_blocks_5_Pad_constant_val_0_to_fp16"), val = tensor<fp16, []>(0x0p+0)];
            tensor<fp16, [1, 48, 66, 66]> pad_6_cast = pad(constant_val = efficientnetv2_s_blocks_5_Pad_constant_val_0_to_fp16, mode = efficientnetv2_s_blocks_5_Pad_mode_0, pad = pad_6_pad_0, x = efficientnetv2_s_blocks_4_Add_cast);
            tensor<string, []> efficientnetv2_s_blocks_5_conv2d_Conv2Dx_pad_type_0 = const()[name = tensor<string, []>("efficientnetv2_s_blocks_5_conv2d_Conv2Dx_pad_type_0"), val = tensor<string, []>("valid")];
            tensor<int32, [2]> efficientnetv2_s_blocks_5_conv2d_Conv2Dx_strides_0 = const()[name = tensor<string, []>("efficientnetv2_s_blocks_5_conv2d_Conv2Dx_strides_0"), val = tensor<int32, [2]>([1, 1])];
            tensor<int32, [2]> efficientnetv2_s_blocks_5_conv2d_Conv2Dx_dilations_0 = const()[name = tensor<string, []>("efficientnetv2_s_blocks_5_conv2d_Conv2Dx_dilations_0"), val = tensor<int32, [2]>([1, 1])];
            tensor<int32, []> efficientnetv2_s_blocks_5_conv2d_Conv2Dx_groups_0 = const()[name = tensor<string, []>("efficientnetv2_s_blocks_5_conv2d_Conv2Dx_groups_0"), val = tensor<int32, []>(1)];
            tensor<int32, [4]> efficientnetv2_s_blocks_5_conv2d_Conv2Dx_pad_0 = const()[name = tensor<string, []>("efficientnetv2_s_blocks_5_conv2d_Conv2Dx_pad_0"), val = tensor<int32, [4]>([0, 0, 0, 0])];
            tensor<fp16, [192, 48, 3, 3]> efficientnetv2_s_blocks_5_tpu_batch_normalization_FusedBatchNormV3_nchw_weight_0_to_fp16 = const()[name = tensor<string, []>("efficientnetv2_s_blocks_5_tpu_batch_normalization_FusedBatchNormV3_nchw_weight_0_to_fp16"), val = tensor<fp16, [192, 48, 3, 3]>(BLOBFILE(path = tensor<string, []>("@model_path/weights/weight.bin"), offset = tensor<uint64, []>(444160)))];
            tensor<fp16, [192]> efficientnetv2_s_blocks_5_tpu_batch_normalization_FusedBatchNormV3_nchw_bias_0_to_fp16 = const()[name = tensor<string, []>("efficientnetv2_s_blocks_5_tpu_batch_normalization_FusedBatchNormV3_nchw_bias_0_to_fp16"), val = tensor<fp16, [192]>(BLOBFILE(path = tensor<string, []>("@model_path/weights/weight.bin"), offset = tensor<uint64, []>(610112)))];
            tensor<fp16, [1, 192, 64, 64]> efficientnetv2_s_blocks_5_tpu_batch_normalization_FusedBatchNormV3_nchw_cast = conv(bias = efficientnetv2_s_blocks_5_tpu_batch_normalization_FusedBatchNormV3_nchw_bias_0_to_fp16, dilations = efficientnetv2_s_blocks_5_conv2d_Conv2Dx_dilations_0, groups = efficientnetv2_s_blocks_5_conv2d_Conv2Dx_groups_0, pad = efficientnetv2_s_blocks_5_conv2d_Conv2Dx_pad_0, pad_type = efficientnetv2_s_blocks_5_conv2d_Conv2Dx_pad_type_0, strides = efficientnetv2_s_blocks_5_conv2d_Conv2Dx_strides_0, weight = efficientnetv2_s_blocks_5_tpu_batch_normalization_FusedBatchNormV3_nchw_weight_0_to_fp16, x = pad_6_cast);
            tensor<fp16, [1, 192, 64, 64]> efficientnetv2_s_blocks_5_mul_1_cast = silu(x = efficientnetv2_s_blocks_5_tpu_batch_normalization_FusedBatchNormV3_nchw_cast);
            tensor<string, []> efficientnetv2_s_blocks_5_conv2d_1_Conv2Dx_pad_type_0 = const()[name = tensor<string, []>("efficientnetv2_s_blocks_5_conv2d_1_Conv2Dx_pad_type_0"), val = tensor<string, []>("valid")];
            tensor<int32, [2]> efficientnetv2_s_blocks_5_conv2d_1_Conv2Dx_strides_0 = const()[name = tensor<string, []>("efficientnetv2_s_blocks_5_conv2d_1_Conv2Dx_strides_0"), val = tensor<int32, [2]>([1, 1])];
            tensor<int32, [2]> efficientnetv2_s_blocks_5_conv2d_1_Conv2Dx_dilations_0 = const()[name = tensor<string, []>("efficientnetv2_s_blocks_5_conv2d_1_Conv2Dx_dilations_0"), val = tensor<int32, [2]>([1, 1])];
            tensor<int32, []> efficientnetv2_s_blocks_5_conv2d_1_Conv2Dx_groups_0 = const()[name = tensor<string, []>("efficientnetv2_s_blocks_5_conv2d_1_Conv2Dx_groups_0"), val = tensor<int32, []>(1)];
            tensor<int32, [4]> efficientnetv2_s_blocks_5_conv2d_1_Conv2Dx_pad_0 = const()[name = tensor<string, []>("efficientnetv2_s_blocks_5_conv2d_1_Conv2Dx_pad_0"), val = tensor<int32, [4]>([0, 0, 0, 0])];
            tensor<fp16, [48, 192, 1, 1]> efficientnetv2_s_blocks_5_tpu_batch_normalization_1_FusedBatchNormV3_nchw_weight_0_to_fp16 = const()[name = tensor<string, []>("efficientnetv2_s_blocks_5_tpu_batch_normalization_1_FusedBatchNormV3_nchw_weight_0_to_fp16"), val = tensor<fp16, [48, 192, 1, 1]>(BLOBFILE(path = tensor<string, []>("@model_path/weights/weight.bin"), offset = tensor<uint64, []>(610560)))];
            tensor<fp16, [48]> efficientnetv2_s_blocks_5_tpu_batch_normalization_1_FusedBatchNormV3_nchw_bias_0_to_fp16 = const()[name = tensor<string, []>("efficientnetv2_s_blocks_5_tpu_batch_normalization_1_FusedBatchNormV3_nchw_bias_0_to_fp16"), val = tensor<fp16, [48]>(BLOBFILE(path = tensor<string, []>("@model_path/weights/weight.bin"), offset = tensor<uint64, []>(629056)))];
            tensor<fp16, [1, 48, 64, 64]> efficientnetv2_s_blocks_5_tpu_batch_normalization_1_FusedBatchNormV3_nchw_cast = conv(bias = efficientnetv2_s_blocks_5_tpu_batch_normalization_1_FusedBatchNormV3_nchw_bias_0_to_fp16, dilations = efficientnetv2_s_blocks_5_conv2d_1_Conv2Dx_dilations_0, groups = efficientnetv2_s_blocks_5_conv2d_1_Conv2Dx_groups_0, pad = efficientnetv2_s_blocks_5_conv2d_1_Conv2Dx_pad_0, pad_type = efficientnetv2_s_blocks_5_conv2d_1_Conv2Dx_pad_type_0, strides = efficientnetv2_s_blocks_5_conv2d_1_Conv2Dx_strides_0, weight = efficientnetv2_s_blocks_5_tpu_batch_normalization_1_FusedBatchNormV3_nchw_weight_0_to_fp16, x = efficientnetv2_s_blocks_5_mul_1_cast);
            tensor<fp16, [1, 48, 64, 64]> efficientnetv2_s_blocks_5_Add_cast = add(x = efficientnetv2_s_blocks_5_tpu_batch_normalization_1_FusedBatchNormV3_nchw_cast, y = efficientnetv2_s_blocks_4_Add_cast);
            tensor<string, []> efficientnetv2_s_blocks_6_Pad_mode_0 = const()[name = tensor<string, []>("efficientnetv2_s_blocks_6_Pad_mode_0"), val = tensor<string, []>("constant")];
            tensor<int32, [8]> pad_7_pad_0 = const()[name = tensor<string, []>("pad_7_pad_0"), val = tensor<int32, [8]>([0, 0, 0, 0, 1, 1, 1, 1])];
            tensor<fp16, []> efficientnetv2_s_blocks_6_Pad_constant_val_0_to_fp16 = const()[name = tensor<string, []>("efficientnetv2_s_blocks_6_Pad_constant_val_0_to_fp16"), val = tensor<fp16, []>(0x0p+0)];
            tensor<fp16, [1, 48, 66, 66]> pad_7_cast = pad(constant_val = efficientnetv2_s_blocks_6_Pad_constant_val_0_to_fp16, mode = efficientnetv2_s_blocks_6_Pad_mode_0, pad = pad_7_pad_0, x = efficientnetv2_s_blocks_5_Add_cast);
            tensor<string, []> efficientnetv2_s_blocks_6_conv2d_Conv2Dx_pad_type_0 = const()[name = tensor<string, []>("efficientnetv2_s_blocks_6_conv2d_Conv2Dx_pad_type_0"), val = tensor<string, []>("valid")];
            tensor<int32, [2]> efficientnetv2_s_blocks_6_conv2d_Conv2Dx_strides_0 = const()[name = tensor<string, []>("efficientnetv2_s_blocks_6_conv2d_Conv2Dx_strides_0"), val = tensor<int32, [2]>([2, 2])];
            tensor<int32, [2]> efficientnetv2_s_blocks_6_conv2d_Conv2Dx_dilations_0 = const()[name = tensor<string, []>("efficientnetv2_s_blocks_6_conv2d_Conv2Dx_dilations_0"), val = tensor<int32, [2]>([1, 1])];
            tensor<int32, []> efficientnetv2_s_blocks_6_conv2d_Conv2Dx_groups_0 = const()[name = tensor<string, []>("efficientnetv2_s_blocks_6_conv2d_Conv2Dx_groups_0"), val = tensor<int32, []>(1)];
            tensor<int32, [4]> efficientnetv2_s_blocks_6_conv2d_Conv2Dx_pad_0 = const()[name = tensor<string, []>("efficientnetv2_s_blocks_6_conv2d_Conv2Dx_pad_0"), val = tensor<int32, [4]>([0, 0, 0, 0])];
            tensor<fp16, [192, 48, 3, 3]> efficientnetv2_s_blocks_6_tpu_batch_normalization_FusedBatchNormV3_nchw_weight_0_to_fp16 = const()[name = tensor<string, []>("efficientnetv2_s_blocks_6_tpu_batch_normalization_FusedBatchNormV3_nchw_weight_0_to_fp16"), val = tensor<fp16, [192, 48, 3, 3]>(BLOBFILE(path = tensor<string, []>("@model_path/weights/weight.bin"), offset = tensor<uint64, []>(629248)))];
            tensor<fp16, [192]> efficientnetv2_s_blocks_6_tpu_batch_normalization_FusedBatchNormV3_nchw_bias_0_to_fp16 = const()[name = tensor<string, []>("efficientnetv2_s_blocks_6_tpu_batch_normalization_FusedBatchNormV3_nchw_bias_0_to_fp16"), val = tensor<fp16, [192]>(BLOBFILE(path = tensor<string, []>("@model_path/weights/weight.bin"), offset = tensor<uint64, []>(795200)))];
            tensor<fp16, [1, 192, 32, 32]> efficientnetv2_s_blocks_6_tpu_batch_normalization_FusedBatchNormV3_nchw_cast = conv(bias = efficientnetv2_s_blocks_6_tpu_batch_normalization_FusedBatchNormV3_nchw_bias_0_to_fp16, dilations = efficientnetv2_s_blocks_6_conv2d_Conv2Dx_dilations_0, groups = efficientnetv2_s_blocks_6_conv2d_Conv2Dx_groups_0, pad = efficientnetv2_s_blocks_6_conv2d_Conv2Dx_pad_0, pad_type = efficientnetv2_s_blocks_6_conv2d_Conv2Dx_pad_type_0, strides = efficientnetv2_s_blocks_6_conv2d_Conv2Dx_strides_0, weight = efficientnetv2_s_blocks_6_tpu_batch_normalization_FusedBatchNormV3_nchw_weight_0_to_fp16, x = pad_7_cast);
            tensor<fp16, [1, 192, 32, 32]> efficientnetv2_s_blocks_6_mul_1_cast = silu(x = efficientnetv2_s_blocks_6_tpu_batch_normalization_FusedBatchNormV3_nchw_cast);
            tensor<string, []> efficientnetv2_s_blocks_6_conv2d_1_Conv2Dx_pad_type_0 = const()[name = tensor<string, []>("efficientnetv2_s_blocks_6_conv2d_1_Conv2Dx_pad_type_0"), val = tensor<string, []>("valid")];
            tensor<int32, [2]> efficientnetv2_s_blocks_6_conv2d_1_Conv2Dx_strides_0 = const()[name = tensor<string, []>("efficientnetv2_s_blocks_6_conv2d_1_Conv2Dx_strides_0"), val = tensor<int32, [2]>([1, 1])];
            tensor<int32, [2]> efficientnetv2_s_blocks_6_conv2d_1_Conv2Dx_dilations_0 = const()[name = tensor<string, []>("efficientnetv2_s_blocks_6_conv2d_1_Conv2Dx_dilations_0"), val = tensor<int32, [2]>([1, 1])];
            tensor<int32, []> efficientnetv2_s_blocks_6_conv2d_1_Conv2Dx_groups_0 = const()[name = tensor<string, []>("efficientnetv2_s_blocks_6_conv2d_1_Conv2Dx_groups_0"), val = tensor<int32, []>(1)];
            tensor<int32, [4]> efficientnetv2_s_blocks_6_conv2d_1_Conv2Dx_pad_0 = const()[name = tensor<string, []>("efficientnetv2_s_blocks_6_conv2d_1_Conv2Dx_pad_0"), val = tensor<int32, [4]>([0, 0, 0, 0])];
            tensor<fp16, [64, 192, 1, 1]> efficientnetv2_s_blocks_6_tpu_batch_normalization_1_FusedBatchNormV3_nchw_weight_0_to_fp16 = const()[name = tensor<string, []>("efficientnetv2_s_blocks_6_tpu_batch_normalization_1_FusedBatchNormV3_nchw_weight_0_to_fp16"), val = tensor<fp16, [64, 192, 1, 1]>(BLOBFILE(path = tensor<string, []>("@model_path/weights/weight.bin"), offset = tensor<uint64, []>(795648)))];
            tensor<fp16, [64]> efficientnetv2_s_blocks_6_tpu_batch_normalization_1_FusedBatchNormV3_nchw_bias_0_to_fp16 = const()[name = tensor<string, []>("efficientnetv2_s_blocks_6_tpu_batch_normalization_1_FusedBatchNormV3_nchw_bias_0_to_fp16"), val = tensor<fp16, [64]>(BLOBFILE(path = tensor<string, []>("@model_path/weights/weight.bin"), offset = tensor<uint64, []>(820288)))];
            tensor<fp16, [1, 64, 32, 32]> efficientnetv2_s_blocks_6_tpu_batch_normalization_1_FusedBatchNormV3_nchw_cast = conv(bias = efficientnetv2_s_blocks_6_tpu_batch_normalization_1_FusedBatchNormV3_nchw_bias_0_to_fp16, dilations = efficientnetv2_s_blocks_6_conv2d_1_Conv2Dx_dilations_0, groups = efficientnetv2_s_blocks_6_conv2d_1_Conv2Dx_groups_0, pad = efficientnetv2_s_blocks_6_conv2d_1_Conv2Dx_pad_0, pad_type = efficientnetv2_s_blocks_6_conv2d_1_Conv2Dx_pad_type_0, strides = efficientnetv2_s_blocks_6_conv2d_1_Conv2Dx_strides_0, weight = efficientnetv2_s_blocks_6_tpu_batch_normalization_1_FusedBatchNormV3_nchw_weight_0_to_fp16, x = efficientnetv2_s_blocks_6_mul_1_cast);
            tensor<string, []> efficientnetv2_s_blocks_7_Pad_mode_0 = const()[name = tensor<string, []>("efficientnetv2_s_blocks_7_Pad_mode_0"), val = tensor<string, []>("constant")];
            tensor<int32, [8]> pad_8_pad_0 = const()[name = tensor<string, []>("pad_8_pad_0"), val = tensor<int32, [8]>([0, 0, 0, 0, 1, 1, 1, 1])];
            tensor<fp16, []> efficientnetv2_s_blocks_7_Pad_constant_val_0_to_fp16 = const()[name = tensor<string, []>("efficientnetv2_s_blocks_7_Pad_constant_val_0_to_fp16"), val = tensor<fp16, []>(0x0p+0)];
            tensor<fp16, [1, 64, 34, 34]> pad_8_cast = pad(constant_val = efficientnetv2_s_blocks_7_Pad_constant_val_0_to_fp16, mode = efficientnetv2_s_blocks_7_Pad_mode_0, pad = pad_8_pad_0, x = efficientnetv2_s_blocks_6_tpu_batch_normalization_1_FusedBatchNormV3_nchw_cast);
            tensor<string, []> efficientnetv2_s_blocks_7_conv2d_Conv2Dx_pad_type_0 = const()[name = tensor<string, []>("efficientnetv2_s_blocks_7_conv2d_Conv2Dx_pad_type_0"), val = tensor<string, []>("valid")];
            tensor<int32, [2]> efficientnetv2_s_blocks_7_conv2d_Conv2Dx_strides_0 = const()[name = tensor<string, []>("efficientnetv2_s_blocks_7_conv2d_Conv2Dx_strides_0"), val = tensor<int32, [2]>([1, 1])];
            tensor<int32, [2]> efficientnetv2_s_blocks_7_conv2d_Conv2Dx_dilations_0 = const()[name = tensor<string, []>("efficientnetv2_s_blocks_7_conv2d_Conv2Dx_dilations_0"), val = tensor<int32, [2]>([1, 1])];
            tensor<int32, []> efficientnetv2_s_blocks_7_conv2d_Conv2Dx_groups_0 = const()[name = tensor<string, []>("efficientnetv2_s_blocks_7_conv2d_Conv2Dx_groups_0"), val = tensor<int32, []>(1)];
            tensor<int32, [4]> efficientnetv2_s_blocks_7_conv2d_Conv2Dx_pad_0 = const()[name = tensor<string, []>("efficientnetv2_s_blocks_7_conv2d_Conv2Dx_pad_0"), val = tensor<int32, [4]>([0, 0, 0, 0])];
            tensor<fp16, [256, 64, 3, 3]> efficientnetv2_s_blocks_7_tpu_batch_normalization_FusedBatchNormV3_nchw_weight_0_to_fp16 = const()[name = tensor<string, []>("efficientnetv2_s_blocks_7_tpu_batch_normalization_FusedBatchNormV3_nchw_weight_0_to_fp16"), val = tensor<fp16, [256, 64, 3, 3]>(BLOBFILE(path = tensor<string, []>("@model_path/weights/weight.bin"), offset = tensor<uint64, []>(820480)))];
            tensor<fp16, [256]> efficientnetv2_s_blocks_7_tpu_batch_normalization_FusedBatchNormV3_nchw_bias_0_to_fp16 = const()[name = tensor<string, []>("efficientnetv2_s_blocks_7_tpu_batch_normalization_FusedBatchNormV3_nchw_bias_0_to_fp16"), val = tensor<fp16, [256]>(BLOBFILE(path = tensor<string, []>("@model_path/weights/weight.bin"), offset = tensor<uint64, []>(1115456)))];
            tensor<fp16, [1, 256, 32, 32]> efficientnetv2_s_blocks_7_tpu_batch_normalization_FusedBatchNormV3_nchw_cast = conv(bias = efficientnetv2_s_blocks_7_tpu_batch_normalization_FusedBatchNormV3_nchw_bias_0_to_fp16, dilations = efficientnetv2_s_blocks_7_conv2d_Conv2Dx_dilations_0, groups = efficientnetv2_s_blocks_7_conv2d_Conv2Dx_groups_0, pad = efficientnetv2_s_blocks_7_conv2d_Conv2Dx_pad_0, pad_type = efficientnetv2_s_blocks_7_conv2d_Conv2Dx_pad_type_0, strides = efficientnetv2_s_blocks_7_conv2d_Conv2Dx_strides_0, weight = efficientnetv2_s_blocks_7_tpu_batch_normalization_FusedBatchNormV3_nchw_weight_0_to_fp16, x = pad_8_cast);
            tensor<fp16, [1, 256, 32, 32]> efficientnetv2_s_blocks_7_mul_1_cast = silu(x = efficientnetv2_s_blocks_7_tpu_batch_normalization_FusedBatchNormV3_nchw_cast);
            tensor<string, []> efficientnetv2_s_blocks_7_conv2d_1_Conv2Dx_pad_type_0 = const()[name = tensor<string, []>("efficientnetv2_s_blocks_7_conv2d_1_Conv2Dx_pad_type_0"), val = tensor<string, []>("valid")];
            tensor<int32, [2]> efficientnetv2_s_blocks_7_conv2d_1_Conv2Dx_strides_0 = const()[name = tensor<string, []>("efficientnetv2_s_blocks_7_conv2d_1_Conv2Dx_strides_0"), val = tensor<int32, [2]>([1, 1])];
            tensor<int32, [2]> efficientnetv2_s_blocks_7_conv2d_1_Conv2Dx_dilations_0 = const()[name = tensor<string, []>("efficientnetv2_s_blocks_7_conv2d_1_Conv2Dx_dilations_0"), val = tensor<int32, [2]>([1, 1])];
            tensor<int32, []> efficientnetv2_s_blocks_7_conv2d_1_Conv2Dx_groups_0 = const()[name = tensor<string, []>("efficientnetv2_s_blocks_7_conv2d_1_Conv2Dx_groups_0"), val = tensor<int32, []>(1)];
            tensor<int32, [4]> efficientnetv2_s_blocks_7_conv2d_1_Conv2Dx_pad_0 = const()[name = tensor<string, []>("efficientnetv2_s_blocks_7_conv2d_1_Conv2Dx_pad_0"), val = tensor<int32, [4]>([0, 0, 0, 0])];
            tensor<fp16, [64, 256, 1, 1]> efficientnetv2_s_blocks_7_tpu_batch_normalization_1_FusedBatchNormV3_nchw_weight_0_to_fp16 = const()[name = tensor<string, []>("efficientnetv2_s_blocks_7_tpu_batch_normalization_1_FusedBatchNormV3_nchw_weight_0_to_fp16"), val = tensor<fp16, [64, 256, 1, 1]>(BLOBFILE(path = tensor<string, []>("@model_path/weights/weight.bin"), offset = tensor<uint64, []>(1116032)))];
            tensor<fp16, [64]> efficientnetv2_s_blocks_7_tpu_batch_normalization_1_FusedBatchNormV3_nchw_bias_0_to_fp16 = const()[name = tensor<string, []>("efficientnetv2_s_blocks_7_tpu_batch_normalization_1_FusedBatchNormV3_nchw_bias_0_to_fp16"), val = tensor<fp16, [64]>(BLOBFILE(path = tensor<string, []>("@model_path/weights/weight.bin"), offset = tensor<uint64, []>(1148864)))];
            tensor<fp16, [1, 64, 32, 32]> efficientnetv2_s_blocks_7_tpu_batch_normalization_1_FusedBatchNormV3_nchw_cast = conv(bias = efficientnetv2_s_blocks_7_tpu_batch_normalization_1_FusedBatchNormV3_nchw_bias_0_to_fp16, dilations = efficientnetv2_s_blocks_7_conv2d_1_Conv2Dx_dilations_0, groups = efficientnetv2_s_blocks_7_conv2d_1_Conv2Dx_groups_0, pad = efficientnetv2_s_blocks_7_conv2d_1_Conv2Dx_pad_0, pad_type = efficientnetv2_s_blocks_7_conv2d_1_Conv2Dx_pad_type_0, strides = efficientnetv2_s_blocks_7_conv2d_1_Conv2Dx_strides_0, weight = efficientnetv2_s_blocks_7_tpu_batch_normalization_1_FusedBatchNormV3_nchw_weight_0_to_fp16, x = efficientnetv2_s_blocks_7_mul_1_cast);
            tensor<fp16, [1, 64, 32, 32]> efficientnetv2_s_blocks_7_Add_cast = add(x = efficientnetv2_s_blocks_7_tpu_batch_normalization_1_FusedBatchNormV3_nchw_cast, y = efficientnetv2_s_blocks_6_tpu_batch_normalization_1_FusedBatchNormV3_nchw_cast);
            tensor<string, []> efficientnetv2_s_blocks_8_Pad_mode_0 = const()[name = tensor<string, []>("efficientnetv2_s_blocks_8_Pad_mode_0"), val = tensor<string, []>("constant")];
            tensor<int32, [8]> pad_9_pad_0 = const()[name = tensor<string, []>("pad_9_pad_0"), val = tensor<int32, [8]>([0, 0, 0, 0, 1, 1, 1, 1])];
            tensor<fp16, []> efficientnetv2_s_blocks_8_Pad_constant_val_0_to_fp16 = const()[name = tensor<string, []>("efficientnetv2_s_blocks_8_Pad_constant_val_0_to_fp16"), val = tensor<fp16, []>(0x0p+0)];
            tensor<fp16, [1, 64, 34, 34]> pad_9_cast = pad(constant_val = efficientnetv2_s_blocks_8_Pad_constant_val_0_to_fp16, mode = efficientnetv2_s_blocks_8_Pad_mode_0, pad = pad_9_pad_0, x = efficientnetv2_s_blocks_7_Add_cast);
            tensor<string, []> efficientnetv2_s_blocks_8_conv2d_Conv2Dx_pad_type_0 = const()[name = tensor<string, []>("efficientnetv2_s_blocks_8_conv2d_Conv2Dx_pad_type_0"), val = tensor<string, []>("valid")];
            tensor<int32, [2]> efficientnetv2_s_blocks_8_conv2d_Conv2Dx_strides_0 = const()[name = tensor<string, []>("efficientnetv2_s_blocks_8_conv2d_Conv2Dx_strides_0"), val = tensor<int32, [2]>([1, 1])];
            tensor<int32, [2]> efficientnetv2_s_blocks_8_conv2d_Conv2Dx_dilations_0 = const()[name = tensor<string, []>("efficientnetv2_s_blocks_8_conv2d_Conv2Dx_dilations_0"), val = tensor<int32, [2]>([1, 1])];
            tensor<int32, []> efficientnetv2_s_blocks_8_conv2d_Conv2Dx_groups_0 = const()[name = tensor<string, []>("efficientnetv2_s_blocks_8_conv2d_Conv2Dx_groups_0"), val = tensor<int32, []>(1)];
            tensor<int32, [4]> efficientnetv2_s_blocks_8_conv2d_Conv2Dx_pad_0 = const()[name = tensor<string, []>("efficientnetv2_s_blocks_8_conv2d_Conv2Dx_pad_0"), val = tensor<int32, [4]>([0, 0, 0, 0])];
            tensor<fp16, [256, 64, 3, 3]> efficientnetv2_s_blocks_8_tpu_batch_normalization_FusedBatchNormV3_nchw_weight_0_to_fp16 = const()[name = tensor<string, []>("efficientnetv2_s_blocks_8_tpu_batch_normalization_FusedBatchNormV3_nchw_weight_0_to_fp16"), val = tensor<fp16, [256, 64, 3, 3]>(BLOBFILE(path = tensor<string, []>("@model_path/weights/weight.bin"), offset = tensor<uint64, []>(1149056)))];
            tensor<fp16, [256]> efficientnetv2_s_blocks_8_tpu_batch_normalization_FusedBatchNormV3_nchw_bias_0_to_fp16 = const()[name = tensor<string, []>("efficientnetv2_s_blocks_8_tpu_batch_normalization_FusedBatchNormV3_nchw_bias_0_to_fp16"), val = tensor<fp16, [256]>(BLOBFILE(path = tensor<string, []>("@model_path/weights/weight.bin"), offset = tensor<uint64, []>(1444032)))];
            tensor<fp16, [1, 256, 32, 32]> efficientnetv2_s_blocks_8_tpu_batch_normalization_FusedBatchNormV3_nchw_cast = conv(bias = efficientnetv2_s_blocks_8_tpu_batch_normalization_FusedBatchNormV3_nchw_bias_0_to_fp16, dilations = efficientnetv2_s_blocks_8_conv2d_Conv2Dx_dilations_0, groups = efficientnetv2_s_blocks_8_conv2d_Conv2Dx_groups_0, pad = efficientnetv2_s_blocks_8_conv2d_Conv2Dx_pad_0, pad_type = efficientnetv2_s_blocks_8_conv2d_Conv2Dx_pad_type_0, strides = efficientnetv2_s_blocks_8_conv2d_Conv2Dx_strides_0, weight = efficientnetv2_s_blocks_8_tpu_batch_normalization_FusedBatchNormV3_nchw_weight_0_to_fp16, x = pad_9_cast);
            tensor<fp16, [1, 256, 32, 32]> efficientnetv2_s_blocks_8_mul_1_cast = silu(x = efficientnetv2_s_blocks_8_tpu_batch_normalization_FusedBatchNormV3_nchw_cast);
            tensor<string, []> efficientnetv2_s_blocks_8_conv2d_1_Conv2Dx_pad_type_0 = const()[name = tensor<string, []>("efficientnetv2_s_blocks_8_conv2d_1_Conv2Dx_pad_type_0"), val = tensor<string, []>("valid")];
            tensor<int32, [2]> efficientnetv2_s_blocks_8_conv2d_1_Conv2Dx_strides_0 = const()[name = tensor<string, []>("efficientnetv2_s_blocks_8_conv2d_1_Conv2Dx_strides_0"), val = tensor<int32, [2]>([1, 1])];
            tensor<int32, [2]> efficientnetv2_s_blocks_8_conv2d_1_Conv2Dx_dilations_0 = const()[name = tensor<string, []>("efficientnetv2_s_blocks_8_conv2d_1_Conv2Dx_dilations_0"), val = tensor<int32, [2]>([1, 1])];
            tensor<int32, []> efficientnetv2_s_blocks_8_conv2d_1_Conv2Dx_groups_0 = const()[name = tensor<string, []>("efficientnetv2_s_blocks_8_conv2d_1_Conv2Dx_groups_0"), val = tensor<int32, []>(1)];
            tensor<int32, [4]> efficientnetv2_s_blocks_8_conv2d_1_Conv2Dx_pad_0 = const()[name = tensor<string, []>("efficientnetv2_s_blocks_8_conv2d_1_Conv2Dx_pad_0"), val = tensor<int32, [4]>([0, 0, 0, 0])];
            tensor<fp16, [64, 256, 1, 1]> efficientnetv2_s_blocks_8_tpu_batch_normalization_1_FusedBatchNormV3_nchw_weight_0_to_fp16 = const()[name = tensor<string, []>("efficientnetv2_s_blocks_8_tpu_batch_normalization_1_FusedBatchNormV3_nchw_weight_0_to_fp16"), val = tensor<fp16, [64, 256, 1, 1]>(BLOBFILE(path = tensor<string, []>("@model_path/weights/weight.bin"), offset = tensor<uint64, []>(1444608)))];
            tensor<fp16, [64]> efficientnetv2_s_blocks_8_tpu_batch_normalization_1_FusedBatchNormV3_nchw_bias_0_to_fp16 = const()[name = tensor<string, []>("efficientnetv2_s_blocks_8_tpu_batch_normalization_1_FusedBatchNormV3_nchw_bias_0_to_fp16"), val = tensor<fp16, [64]>(BLOBFILE(path = tensor<string, []>("@model_path/weights/weight.bin"), offset = tensor<uint64, []>(1477440)))];
            tensor<fp16, [1, 64, 32, 32]> efficientnetv2_s_blocks_8_tpu_batch_normalization_1_FusedBatchNormV3_nchw_cast = conv(bias = efficientnetv2_s_blocks_8_tpu_batch_normalization_1_FusedBatchNormV3_nchw_bias_0_to_fp16, dilations = efficientnetv2_s_blocks_8_conv2d_1_Conv2Dx_dilations_0, groups = efficientnetv2_s_blocks_8_conv2d_1_Conv2Dx_groups_0, pad = efficientnetv2_s_blocks_8_conv2d_1_Conv2Dx_pad_0, pad_type = efficientnetv2_s_blocks_8_conv2d_1_Conv2Dx_pad_type_0, strides = efficientnetv2_s_blocks_8_conv2d_1_Conv2Dx_strides_0, weight = efficientnetv2_s_blocks_8_tpu_batch_normalization_1_FusedBatchNormV3_nchw_weight_0_to_fp16, x = efficientnetv2_s_blocks_8_mul_1_cast);
            tensor<fp16, [1, 64, 32, 32]> efficientnetv2_s_blocks_8_Add_cast = add(x = efficientnetv2_s_blocks_8_tpu_batch_normalization_1_FusedBatchNormV3_nchw_cast, y = efficientnetv2_s_blocks_7_Add_cast);
            tensor<string, []> efficientnetv2_s_blocks_9_Pad_mode_0 = const()[name = tensor<string, []>("efficientnetv2_s_blocks_9_Pad_mode_0"), val = tensor<string, []>("constant")];
            tensor<int32, [8]> pad_10_pad_0 = const()[name = tensor<string, []>("pad_10_pad_0"), val = tensor<int32, [8]>([0, 0, 0, 0, 1, 1, 1, 1])];
            tensor<fp16, []> efficientnetv2_s_blocks_9_Pad_constant_val_0_to_fp16 = const()[name = tensor<string, []>("efficientnetv2_s_blocks_9_Pad_constant_val_0_to_fp16"), val = tensor<fp16, []>(0x0p+0)];
            tensor<fp16, [1, 64, 34, 34]> pad_10_cast = pad(constant_val = efficientnetv2_s_blocks_9_Pad_constant_val_0_to_fp16, mode = efficientnetv2_s_blocks_9_Pad_mode_0, pad = pad_10_pad_0, x = efficientnetv2_s_blocks_8_Add_cast);
            tensor<string, []> efficientnetv2_s_blocks_9_conv2d_Conv2Dx_pad_type_0 = const()[name = tensor<string, []>("efficientnetv2_s_blocks_9_conv2d_Conv2Dx_pad_type_0"), val = tensor<string, []>("valid")];
            tensor<int32, [2]> efficientnetv2_s_blocks_9_conv2d_Conv2Dx_strides_0 = const()[name = tensor<string, []>("efficientnetv2_s_blocks_9_conv2d_Conv2Dx_strides_0"), val = tensor<int32, [2]>([1, 1])];
            tensor<int32, [2]> efficientnetv2_s_blocks_9_conv2d_Conv2Dx_dilations_0 = const()[name = tensor<string, []>("efficientnetv2_s_blocks_9_conv2d_Conv2Dx_dilations_0"), val = tensor<int32, [2]>([1, 1])];
            tensor<int32, []> efficientnetv2_s_blocks_9_conv2d_Conv2Dx_groups_0 = const()[name = tensor<string, []>("efficientnetv2_s_blocks_9_conv2d_Conv2Dx_groups_0"), val = tensor<int32, []>(1)];
            tensor<int32, [4]> efficientnetv2_s_blocks_9_conv2d_Conv2Dx_pad_0 = const()[name = tensor<string, []>("efficientnetv2_s_blocks_9_conv2d_Conv2Dx_pad_0"), val = tensor<int32, [4]>([0, 0, 0, 0])];
            tensor<fp16, [256, 64, 3, 3]> efficientnetv2_s_blocks_9_tpu_batch_normalization_FusedBatchNormV3_nchw_weight_0_to_fp16 = const()[name = tensor<string, []>("efficientnetv2_s_blocks_9_tpu_batch_normalization_FusedBatchNormV3_nchw_weight_0_to_fp16"), val = tensor<fp16, [256, 64, 3, 3]>(BLOBFILE(path = tensor<string, []>("@model_path/weights/weight.bin"), offset = tensor<uint64, []>(1477632)))];
            tensor<fp16, [256]> efficientnetv2_s_blocks_9_tpu_batch_normalization_FusedBatchNormV3_nchw_bias_0_to_fp16 = const()[name = tensor<string, []>("efficientnetv2_s_blocks_9_tpu_batch_normalization_FusedBatchNormV3_nchw_bias_0_to_fp16"), val = tensor<fp16, [256]>(BLOBFILE(path = tensor<string, []>("@model_path/weights/weight.bin"), offset = tensor<uint64, []>(1772608)))];
            tensor<fp16, [1, 256, 32, 32]> efficientnetv2_s_blocks_9_tpu_batch_normalization_FusedBatchNormV3_nchw_cast = conv(bias = efficientnetv2_s_blocks_9_tpu_batch_normalization_FusedBatchNormV3_nchw_bias_0_to_fp16, dilations = efficientnetv2_s_blocks_9_conv2d_Conv2Dx_dilations_0, groups = efficientnetv2_s_blocks_9_conv2d_Conv2Dx_groups_0, pad = efficientnetv2_s_blocks_9_conv2d_Conv2Dx_pad_0, pad_type = efficientnetv2_s_blocks_9_conv2d_Conv2Dx_pad_type_0, strides = efficientnetv2_s_blocks_9_conv2d_Conv2Dx_strides_0, weight = efficientnetv2_s_blocks_9_tpu_batch_normalization_FusedBatchNormV3_nchw_weight_0_to_fp16, x = pad_10_cast);
            tensor<fp16, [1, 256, 32, 32]> efficientnetv2_s_blocks_9_mul_1_cast = silu(x = efficientnetv2_s_blocks_9_tpu_batch_normalization_FusedBatchNormV3_nchw_cast);
            tensor<string, []> efficientnetv2_s_blocks_9_conv2d_1_Conv2Dx_pad_type_0 = const()[name = tensor<string, []>("efficientnetv2_s_blocks_9_conv2d_1_Conv2Dx_pad_type_0"), val = tensor<string, []>("valid")];
            tensor<int32, [2]> efficientnetv2_s_blocks_9_conv2d_1_Conv2Dx_strides_0 = const()[name = tensor<string, []>("efficientnetv2_s_blocks_9_conv2d_1_Conv2Dx_strides_0"), val = tensor<int32, [2]>([1, 1])];
            tensor<int32, [2]> efficientnetv2_s_blocks_9_conv2d_1_Conv2Dx_dilations_0 = const()[name = tensor<string, []>("efficientnetv2_s_blocks_9_conv2d_1_Conv2Dx_dilations_0"), val = tensor<int32, [2]>([1, 1])];
            tensor<int32, []> efficientnetv2_s_blocks_9_conv2d_1_Conv2Dx_groups_0 = const()[name = tensor<string, []>("efficientnetv2_s_blocks_9_conv2d_1_Conv2Dx_groups_0"), val = tensor<int32, []>(1)];
            tensor<int32, [4]> efficientnetv2_s_blocks_9_conv2d_1_Conv2Dx_pad_0 = const()[name = tensor<string, []>("efficientnetv2_s_blocks_9_conv2d_1_Conv2Dx_pad_0"), val = tensor<int32, [4]>([0, 0, 0, 0])];
            tensor<fp16, [64, 256, 1, 1]> efficientnetv2_s_blocks_9_tpu_batch_normalization_1_FusedBatchNormV3_nchw_weight_0_to_fp16 = const()[name = tensor<string, []>("efficientnetv2_s_blocks_9_tpu_batch_normalization_1_FusedBatchNormV3_nchw_weight_0_to_fp16"), val = tensor<fp16, [64, 256, 1, 1]>(BLOBFILE(path = tensor<string, []>("@model_path/weights/weight.bin"), offset = tensor<uint64, []>(1773184)))];
            tensor<fp16, [64]> efficientnetv2_s_blocks_9_tpu_batch_normalization_1_FusedBatchNormV3_nchw_bias_0_to_fp16 = const()[name = tensor<string, []>("efficientnetv2_s_blocks_9_tpu_batch_normalization_1_FusedBatchNormV3_nchw_bias_0_to_fp16"), val = tensor<fp16, [64]>(BLOBFILE(path = tensor<string, []>("@model_path/weights/weight.bin"), offset = tensor<uint64, []>(1806016)))];
            tensor<fp16, [1, 64, 32, 32]> efficientnetv2_s_blocks_9_tpu_batch_normalization_1_FusedBatchNormV3_nchw_cast = conv(bias = efficientnetv2_s_blocks_9_tpu_batch_normalization_1_FusedBatchNormV3_nchw_bias_0_to_fp16, dilations = efficientnetv2_s_blocks_9_conv2d_1_Conv2Dx_dilations_0, groups = efficientnetv2_s_blocks_9_conv2d_1_Conv2Dx_groups_0, pad = efficientnetv2_s_blocks_9_conv2d_1_Conv2Dx_pad_0, pad_type = efficientnetv2_s_blocks_9_conv2d_1_Conv2Dx_pad_type_0, strides = efficientnetv2_s_blocks_9_conv2d_1_Conv2Dx_strides_0, weight = efficientnetv2_s_blocks_9_tpu_batch_normalization_1_FusedBatchNormV3_nchw_weight_0_to_fp16, x = efficientnetv2_s_blocks_9_mul_1_cast);
            tensor<fp16, [1, 64, 32, 32]> efficientnetv2_s_blocks_9_Add_cast = add(x = efficientnetv2_s_blocks_9_tpu_batch_normalization_1_FusedBatchNormV3_nchw_cast, y = efficientnetv2_s_blocks_8_Add_cast);
            tensor<string, []> efficientnetv2_s_blocks_10_conv2d_Conv2Dx_pad_type_0 = const()[name = tensor<string, []>("efficientnetv2_s_blocks_10_conv2d_Conv2Dx_pad_type_0"), val = tensor<string, []>("same")];
            tensor<int32, [2]> efficientnetv2_s_blocks_10_conv2d_Conv2Dx_strides_0 = const()[name = tensor<string, []>("efficientnetv2_s_blocks_10_conv2d_Conv2Dx_strides_0"), val = tensor<int32, [2]>([1, 1])];
            tensor<int32, [2]> efficientnetv2_s_blocks_10_conv2d_Conv2Dx_dilations_0 = const()[name = tensor<string, []>("efficientnetv2_s_blocks_10_conv2d_Conv2Dx_dilations_0"), val = tensor<int32, [2]>([1, 1])];
            tensor<int32, []> efficientnetv2_s_blocks_10_conv2d_Conv2Dx_groups_0 = const()[name = tensor<string, []>("efficientnetv2_s_blocks_10_conv2d_Conv2Dx_groups_0"), val = tensor<int32, []>(1)];
            tensor<int32, [4]> efficientnetv2_s_blocks_10_conv2d_Conv2Dx_pad_0 = const()[name = tensor<string, []>("efficientnetv2_s_blocks_10_conv2d_Conv2Dx_pad_0"), val = tensor<int32, [4]>([0, 0, 0, 0])];
            tensor<fp16, [256, 64, 1, 1]> efficientnetv2_s_blocks_10_tpu_batch_normalization_FusedBatchNormV3_nchw_weight_0_to_fp16 = const()[name = tensor<string, []>("efficientnetv2_s_blocks_10_tpu_batch_normalization_FusedBatchNormV3_nchw_weight_0_to_fp16"), val = tensor<fp16, [256, 64, 1, 1]>(BLOBFILE(path = tensor<string, []>("@model_path/weights/weight.bin"), offset = tensor<uint64, []>(1806208)))];
            tensor<fp16, [256]> efficientnetv2_s_blocks_10_tpu_batch_normalization_FusedBatchNormV3_nchw_bias_0_to_fp16 = const()[name = tensor<string, []>("efficientnetv2_s_blocks_10_tpu_batch_normalization_FusedBatchNormV3_nchw_bias_0_to_fp16"), val = tensor<fp16, [256]>(BLOBFILE(path = tensor<string, []>("@model_path/weights/weight.bin"), offset = tensor<uint64, []>(1839040)))];
            tensor<fp16, [1, 256, 32, 32]> efficientnetv2_s_blocks_10_tpu_batch_normalization_FusedBatchNormV3_nchw_cast = conv(bias = efficientnetv2_s_blocks_10_tpu_batch_normalization_FusedBatchNormV3_nchw_bias_0_to_fp16, dilations = efficientnetv2_s_blocks_10_conv2d_Conv2Dx_dilations_0, groups = efficientnetv2_s_blocks_10_conv2d_Conv2Dx_groups_0, pad = efficientnetv2_s_blocks_10_conv2d_Conv2Dx_pad_0, pad_type = efficientnetv2_s_blocks_10_conv2d_Conv2Dx_pad_type_0, strides = efficientnetv2_s_blocks_10_conv2d_Conv2Dx_strides_0, weight = efficientnetv2_s_blocks_10_tpu_batch_normalization_FusedBatchNormV3_nchw_weight_0_to_fp16, x = efficientnetv2_s_blocks_9_Add_cast);
            tensor<fp16, [1, 256, 32, 32]> efficientnetv2_s_blocks_10_mul_1_cast = silu(x = efficientnetv2_s_blocks_10_tpu_batch_normalization_FusedBatchNormV3_nchw_cast);
            tensor<string, []> efficientnetv2_s_blocks_10_Pad_mode_0 = const()[name = tensor<string, []>("efficientnetv2_s_blocks_10_Pad_mode_0"), val = tensor<string, []>("constant")];
            tensor<int32, [8]> pad_11_pad_0 = const()[name = tensor<string, []>("pad_11_pad_0"), val = tensor<int32, [8]>([0, 0, 0, 0, 1, 1, 1, 1])];
            tensor<fp16, []> efficientnetv2_s_blocks_10_Pad_constant_val_0_to_fp16 = const()[name = tensor<string, []>("efficientnetv2_s_blocks_10_Pad_constant_val_0_to_fp16"), val = tensor<fp16, []>(0x0p+0)];
            tensor<fp16, [1, 256, 34, 34]> pad_11_cast = pad(constant_val = efficientnetv2_s_blocks_10_Pad_constant_val_0_to_fp16, mode = efficientnetv2_s_blocks_10_Pad_mode_0, pad = pad_11_pad_0, x = efficientnetv2_s_blocks_10_mul_1_cast);
            tensor<string, []> efficientnetv2_s_blocks_10_depthwise_conv2d_depthwisex_pad_type_0 = const()[name = tensor<string, []>("efficientnetv2_s_blocks_10_depthwise_conv2d_depthwisex_pad_type_0"), val = tensor<string, []>("valid")];
            tensor<int32, [2]> efficientnetv2_s_blocks_10_depthwise_conv2d_depthwisex_strides_0 = const()[name = tensor<string, []>("efficientnetv2_s_blocks_10_depthwise_conv2d_depthwisex_strides_0"), val = tensor<int32, [2]>([2, 2])];
            tensor<int32, [2]> efficientnetv2_s_blocks_10_depthwise_conv2d_depthwisex_dilations_0 = const()[name = tensor<string, []>("efficientnetv2_s_blocks_10_depthwise_conv2d_depthwisex_dilations_0"), val = tensor<int32, [2]>([1, 1])];
            tensor<int32, []> efficientnetv2_s_blocks_10_depthwise_conv2d_depthwisex_groups_0 = const()[name = tensor<string, []>("efficientnetv2_s_blocks_10_depthwise_conv2d_depthwisex_groups_0"), val = tensor<int32, []>(256)];
            tensor<int32, [4]> efficientnetv2_s_blocks_10_depthwise_conv2d_depthwisex_pad_0 = const()[name = tensor<string, []>("efficientnetv2_s_blocks_10_depthwise_conv2d_depthwisex_pad_0"), val = tensor<int32, [4]>([0, 0, 0, 0])];
            tensor<fp16, [256, 1, 3, 3]> efficientnetv2_s_blocks_10_tpu_batch_normalization_1_FusedBatchNormV3_nchw_weight_0_to_fp16 = const()[name = tensor<string, []>("efficientnetv2_s_blocks_10_tpu_batch_normalization_1_FusedBatchNormV3_nchw_weight_0_to_fp16"), val = tensor<fp16, [256, 1, 3, 3]>(BLOBFILE(path = tensor<string, []>("@model_path/weights/weight.bin"), offset = tensor<uint64, []>(1839616)))];
            tensor<fp16, [256]> efficientnetv2_s_blocks_10_tpu_batch_normalization_1_FusedBatchNormV3_nchw_bias_0_to_fp16 = const()[name = tensor<string, []>("efficientnetv2_s_blocks_10_tpu_batch_normalization_1_FusedBatchNormV3_nchw_bias_0_to_fp16"), val = tensor<fp16, [256]>(BLOBFILE(path = tensor<string, []>("@model_path/weights/weight.bin"), offset = tensor<uint64, []>(1844288)))];
            tensor<fp16, [1, 256, 16, 16]> efficientnetv2_s_blocks_10_tpu_batch_normalization_1_FusedBatchNormV3_nchw_cast = conv(bias = efficientnetv2_s_blocks_10_tpu_batch_normalization_1_FusedBatchNormV3_nchw_bias_0_to_fp16, dilations = efficientnetv2_s_blocks_10_depthwise_conv2d_depthwisex_dilations_0, groups = efficientnetv2_s_blocks_10_depthwise_conv2d_depthwisex_groups_0, pad = efficientnetv2_s_blocks_10_depthwise_conv2d_depthwisex_pad_0, pad_type = efficientnetv2_s_blocks_10_depthwise_conv2d_depthwisex_pad_type_0, strides = efficientnetv2_s_blocks_10_depthwise_conv2d_depthwisex_strides_0, weight = efficientnetv2_s_blocks_10_tpu_batch_normalization_1_FusedBatchNormV3_nchw_weight_0_to_fp16, x = pad_11_cast);
            tensor<fp16, [1, 256, 16, 16]> efficientnetv2_s_blocks_10_mul_3_cast = silu(x = efficientnetv2_s_blocks_10_tpu_batch_normalization_1_FusedBatchNormV3_nchw_cast);
            tensor<bool, []> efficientnetv2_s_blocks_10_se_Mean_keep_dims_0 = const()[name = tensor<string, []>("efficientnetv2_s_blocks_10_se_Mean_keep_dims_0"), val = tensor<bool, []>(true)];
            tensor<int32, [2]> const_0 = const()[name = tensor<string, []>("const_0"), val = tensor<int32, [2]>([2, 3])];
            tensor<fp16, [1, 256, 1, 1]> efficientnetv2_s_blocks_10_se_Mean_cast = reduce_mean(axes = const_0, keep_dims = efficientnetv2_s_blocks_10_se_Mean_keep_dims_0, x = efficientnetv2_s_blocks_10_mul_3_cast);
            tensor<string, []> efficientnetv2_s_blocks_10_se_conv2d_Conv2Dx_pad_type_0 = const()[name = tensor<string, []>("efficientnetv2_s_blocks_10_se_conv2d_Conv2Dx_pad_type_0"), val = tensor<string, []>("same")];
            tensor<int32, [2]> efficientnetv2_s_blocks_10_se_conv2d_Conv2Dx_strides_0 = const()[name = tensor<string, []>("efficientnetv2_s_blocks_10_se_conv2d_Conv2Dx_strides_0"), val = tensor<int32, [2]>([1, 1])];
            tensor<int32, [2]> efficientnetv2_s_blocks_10_se_conv2d_Conv2Dx_dilations_0 = const()[name = tensor<string, []>("efficientnetv2_s_blocks_10_se_conv2d_Conv2Dx_dilations_0"), val = tensor<int32, [2]>([1, 1])];
            tensor<int32, []> efficientnetv2_s_blocks_10_se_conv2d_Conv2Dx_groups_0 = const()[name = tensor<string, []>("efficientnetv2_s_blocks_10_se_conv2d_Conv2Dx_groups_0"), val = tensor<int32, []>(1)];
            tensor<int32, [4]> efficientnetv2_s_blocks_10_se_conv2d_Conv2Dx_pad_0 = const()[name = tensor<string, []>("efficientnetv2_s_blocks_10_se_conv2d_Conv2Dx_pad_0"), val = tensor<int32, [4]>([0, 0, 0, 0])];
            tensor<fp16, [16, 256, 1, 1]> transpose_63_to_fp16 = const()[name = tensor<string, []>("transpose_63_to_fp16"), val = tensor<fp16, [16, 256, 1, 1]>(BLOBFILE(path = tensor<string, []>("@model_path/weights/weight.bin"), offset = tensor<uint64, []>(1844864)))];
            tensor<fp16, [16]> const_90_to_fp16 = const()[name = tensor<string, []>("const_90_to_fp16"), val = tensor<fp16, [16]>(BLOBFILE(path = tensor<string, []>("@model_path/weights/weight.bin"), offset = tensor<uint64, []>(1853120)))];
            tensor<fp16, [1, 16, 1, 1]> efficientnetv2_s_blocks_10_se_conv2d_BiasAdd_cast = conv(bias = const_90_to_fp16, dilations = efficientnetv2_s_blocks_10_se_conv2d_Conv2Dx_dilations_0, groups = efficientnetv2_s_blocks_10_se_conv2d_Conv2Dx_groups_0, pad = efficientnetv2_s_blocks_10_se_conv2d_Conv2Dx_pad_0, pad_type = efficientnetv2_s_blocks_10_se_conv2d_Conv2Dx_pad_type_0, strides = efficientnetv2_s_blocks_10_se_conv2d_Conv2Dx_strides_0, weight = transpose_63_to_fp16, x = efficientnetv2_s_blocks_10_se_Mean_cast);
            tensor<fp16, [1, 16, 1, 1]> efficientnetv2_s_blocks_10_se_mul_1_cast = silu(x = efficientnetv2_s_blocks_10_se_conv2d_BiasAdd_cast);
            tensor<string, []> efficientnetv2_s_blocks_10_se_conv2d_1_Conv2Dx_pad_type_0 = const()[name = tensor<string, []>("efficientnetv2_s_blocks_10_se_conv2d_1_Conv2Dx_pad_type_0"), val = tensor<string, []>("same")];
            tensor<int32, [2]> efficientnetv2_s_blocks_10_se_conv2d_1_Conv2Dx_strides_0 = const()[name = tensor<string, []>("efficientnetv2_s_blocks_10_se_conv2d_1_Conv2Dx_strides_0"), val = tensor<int32, [2]>([1, 1])];
            tensor<int32, [2]> efficientnetv2_s_blocks_10_se_conv2d_1_Conv2Dx_dilations_0 = const()[name = tensor<string, []>("efficientnetv2_s_blocks_10_se_conv2d_1_Conv2Dx_dilations_0"), val = tensor<int32, [2]>([1, 1])];
            tensor<int32, []> efficientnetv2_s_blocks_10_se_conv2d_1_Conv2Dx_groups_0 = const()[name = tensor<string, []>("efficientnetv2_s_blocks_10_se_conv2d_1_Conv2Dx_groups_0"), val = tensor<int32, []>(1)];
            tensor<int32, [4]> efficientnetv2_s_blocks_10_se_conv2d_1_Conv2Dx_pad_0 = const()[name = tensor<string, []>("efficientnetv2_s_blocks_10_se_conv2d_1_Conv2Dx_pad_0"), val = tensor<int32, [4]>([0, 0, 0, 0])];
            tensor<fp16, [256, 16, 1, 1]> transpose_65_to_fp16 = const()[name = tensor<string, []>("transpose_65_to_fp16"), val = tensor<fp16, [256, 16, 1, 1]>(BLOBFILE(path = tensor<string, []>("@model_path/weights/weight.bin"), offset = tensor<uint64, []>(1853248)))];
            tensor<fp16, [256]> const_91_to_fp16 = const()[name = tensor<string, []>("const_91_to_fp16"), val = tensor<fp16, [256]>(BLOBFILE(path = tensor<string, []>("@model_path/weights/weight.bin"), offset = tensor<uint64, []>(1861504)))];
            tensor<fp16, [1, 256, 1, 1]> efficientnetv2_s_blocks_10_se_conv2d_1_BiasAdd_cast = conv(bias = const_91_to_fp16, dilations = efficientnetv2_s_blocks_10_se_conv2d_1_Conv2Dx_dilations_0, groups = efficientnetv2_s_blocks_10_se_conv2d_1_Conv2Dx_groups_0, pad = efficientnetv2_s_blocks_10_se_conv2d_1_Conv2Dx_pad_0, pad_type = efficientnetv2_s_blocks_10_se_conv2d_1_Conv2Dx_pad_type_0, strides = efficientnetv2_s_blocks_10_se_conv2d_1_Conv2Dx_strides_0, weight = transpose_65_to_fp16, x = efficientnetv2_s_blocks_10_se_mul_1_cast);
            tensor<fp16, [1, 256, 1, 1]> efficientnetv2_s_blocks_10_se_Sigmoid_1_cast = sigmoid(x = efficientnetv2_s_blocks_10_se_conv2d_1_BiasAdd_cast);
            tensor<fp16, [1, 256, 16, 16]> efficientnetv2_s_blocks_10_se_mul_2_cast = mul(x = efficientnetv2_s_blocks_10_se_Sigmoid_1_cast, y = efficientnetv2_s_blocks_10_mul_3_cast);
            tensor<string, []> efficientnetv2_s_blocks_10_conv2d_1_Conv2Dx_pad_type_0 = const()[name = tensor<string, []>("efficientnetv2_s_blocks_10_conv2d_1_Conv2Dx_pad_type_0"), val = tensor<string, []>("same")];
            tensor<int32, [2]> efficientnetv2_s_blocks_10_conv2d_1_Conv2Dx_strides_0 = const()[name = tensor<string, []>("efficientnetv2_s_blocks_10_conv2d_1_Conv2Dx_strides_0"), val = tensor<int32, [2]>([1, 1])];
            tensor<int32, [2]> efficientnetv2_s_blocks_10_conv2d_1_Conv2Dx_dilations_0 = const()[name = tensor<string, []>("efficientnetv2_s_blocks_10_conv2d_1_Conv2Dx_dilations_0"), val = tensor<int32, [2]>([1, 1])];
            tensor<int32, []> efficientnetv2_s_blocks_10_conv2d_1_Conv2Dx_groups_0 = const()[name = tensor<string, []>("efficientnetv2_s_blocks_10_conv2d_1_Conv2Dx_groups_0"), val = tensor<int32, []>(1)];
            tensor<int32, [4]> efficientnetv2_s_blocks_10_conv2d_1_Conv2Dx_pad_0 = const()[name = tensor<string, []>("efficientnetv2_s_blocks_10_conv2d_1_Conv2Dx_pad_0"), val = tensor<int32, [4]>([0, 0, 0, 0])];
            tensor<fp16, [128, 256, 1, 1]> efficientnetv2_s_blocks_10_tpu_batch_normalization_2_FusedBatchNormV3_nchw_weight_0_to_fp16 = const()[name = tensor<string, []>("efficientnetv2_s_blocks_10_tpu_batch_normalization_2_FusedBatchNormV3_nchw_weight_0_to_fp16"), val = tensor<fp16, [128, 256, 1, 1]>(BLOBFILE(path = tensor<string, []>("@model_path/weights/weight.bin"), offset = tensor<uint64, []>(1862080)))];
            tensor<fp16, [128]> efficientnetv2_s_blocks_10_tpu_batch_normalization_2_FusedBatchNormV3_nchw_bias_0_to_fp16 = const()[name = tensor<string, []>("efficientnetv2_s_blocks_10_tpu_batch_normalization_2_FusedBatchNormV3_nchw_bias_0_to_fp16"), val = tensor<fp16, [128]>(BLOBFILE(path = tensor<string, []>("@model_path/weights/weight.bin"), offset = tensor<uint64, []>(1927680)))];
            tensor<fp16, [1, 128, 16, 16]> efficientnetv2_s_blocks_10_tpu_batch_normalization_2_FusedBatchNormV3_nchw_cast = conv(bias = efficientnetv2_s_blocks_10_tpu_batch_normalization_2_FusedBatchNormV3_nchw_bias_0_to_fp16, dilations = efficientnetv2_s_blocks_10_conv2d_1_Conv2Dx_dilations_0, groups = efficientnetv2_s_blocks_10_conv2d_1_Conv2Dx_groups_0, pad = efficientnetv2_s_blocks_10_conv2d_1_Conv2Dx_pad_0, pad_type = efficientnetv2_s_blocks_10_conv2d_1_Conv2Dx_pad_type_0, strides = efficientnetv2_s_blocks_10_conv2d_1_Conv2Dx_strides_0, weight = efficientnetv2_s_blocks_10_tpu_batch_normalization_2_FusedBatchNormV3_nchw_weight_0_to_fp16, x = efficientnetv2_s_blocks_10_se_mul_2_cast);
            tensor<string, []> efficientnetv2_s_blocks_11_conv2d_Conv2Dx_pad_type_0 = const()[name = tensor<string, []>("efficientnetv2_s_blocks_11_conv2d_Conv2Dx_pad_type_0"), val = tensor<string, []>("same")];
            tensor<int32, [2]> efficientnetv2_s_blocks_11_conv2d_Conv2Dx_strides_0 = const()[name = tensor<string, []>("efficientnetv2_s_blocks_11_conv2d_Conv2Dx_strides_0"), val = tensor<int32, [2]>([1, 1])];
            tensor<int32, [2]> efficientnetv2_s_blocks_11_conv2d_Conv2Dx_dilations_0 = const()[name = tensor<string, []>("efficientnetv2_s_blocks_11_conv2d_Conv2Dx_dilations_0"), val = tensor<int32, [2]>([1, 1])];
            tensor<int32, []> efficientnetv2_s_blocks_11_conv2d_Conv2Dx_groups_0 = const()[name = tensor<string, []>("efficientnetv2_s_blocks_11_conv2d_Conv2Dx_groups_0"), val = tensor<int32, []>(1)];
            tensor<int32, [4]> efficientnetv2_s_blocks_11_conv2d_Conv2Dx_pad_0 = const()[name = tensor<string, []>("efficientnetv2_s_blocks_11_conv2d_Conv2Dx_pad_0"), val = tensor<int32, [4]>([0, 0, 0, 0])];
            tensor<fp16, [512, 128, 1, 1]> efficientnetv2_s_blocks_11_tpu_batch_normalization_FusedBatchNormV3_nchw_weight_0_to_fp16 = const()[name = tensor<string, []>("efficientnetv2_s_blocks_11_tpu_batch_normalization_FusedBatchNormV3_nchw_weight_0_to_fp16"), val = tensor<fp16, [512, 128, 1, 1]>(BLOBFILE(path = tensor<string, []>("@model_path/weights/weight.bin"), offset = tensor<uint64, []>(1928000)))];
            tensor<fp16, [512]> efficientnetv2_s_blocks_11_tpu_batch_normalization_FusedBatchNormV3_nchw_bias_0_to_fp16 = const()[name = tensor<string, []>("efficientnetv2_s_blocks_11_tpu_batch_normalization_FusedBatchNormV3_nchw_bias_0_to_fp16"), val = tensor<fp16, [512]>(BLOBFILE(path = tensor<string, []>("@model_path/weights/weight.bin"), offset = tensor<uint64, []>(2059136)))];
            tensor<fp16, [1, 512, 16, 16]> efficientnetv2_s_blocks_11_tpu_batch_normalization_FusedBatchNormV3_nchw_cast = conv(bias = efficientnetv2_s_blocks_11_tpu_batch_normalization_FusedBatchNormV3_nchw_bias_0_to_fp16, dilations = efficientnetv2_s_blocks_11_conv2d_Conv2Dx_dilations_0, groups = efficientnetv2_s_blocks_11_conv2d_Conv2Dx_groups_0, pad = efficientnetv2_s_blocks_11_conv2d_Conv2Dx_pad_0, pad_type = efficientnetv2_s_blocks_11_conv2d_Conv2Dx_pad_type_0, strides = efficientnetv2_s_blocks_11_conv2d_Conv2Dx_strides_0, weight = efficientnetv2_s_blocks_11_tpu_batch_normalization_FusedBatchNormV3_nchw_weight_0_to_fp16, x = efficientnetv2_s_blocks_10_tpu_batch_normalization_2_FusedBatchNormV3_nchw_cast);
            tensor<fp16, [1, 512, 16, 16]> efficientnetv2_s_blocks_11_mul_1_cast = silu(x = efficientnetv2_s_blocks_11_tpu_batch_normalization_FusedBatchNormV3_nchw_cast);
            tensor<string, []> efficientnetv2_s_blocks_11_Pad_mode_0 = const()[name = tensor<string, []>("efficientnetv2_s_blocks_11_Pad_mode_0"), val = tensor<string, []>("constant")];
            tensor<int32, [8]> pad_12_pad_0 = const()[name = tensor<string, []>("pad_12_pad_0"), val = tensor<int32, [8]>([0, 0, 0, 0, 1, 1, 1, 1])];
            tensor<fp16, []> efficientnetv2_s_blocks_11_Pad_constant_val_0_to_fp16 = const()[name = tensor<string, []>("efficientnetv2_s_blocks_11_Pad_constant_val_0_to_fp16"), val = tensor<fp16, []>(0x0p+0)];
            tensor<fp16, [1, 512, 18, 18]> pad_12_cast = pad(constant_val = efficientnetv2_s_blocks_11_Pad_constant_val_0_to_fp16, mode = efficientnetv2_s_blocks_11_Pad_mode_0, pad = pad_12_pad_0, x = efficientnetv2_s_blocks_11_mul_1_cast);
            tensor<string, []> efficientnetv2_s_blocks_11_depthwise_conv2d_depthwisex_pad_type_0 = const()[name = tensor<string, []>("efficientnetv2_s_blocks_11_depthwise_conv2d_depthwisex_pad_type_0"), val = tensor<string, []>("valid")];
            tensor<int32, [2]> efficientnetv2_s_blocks_11_depthwise_conv2d_depthwisex_strides_0 = const()[name = tensor<string, []>("efficientnetv2_s_blocks_11_depthwise_conv2d_depthwisex_strides_0"), val = tensor<int32, [2]>([1, 1])];
            tensor<int32, [2]> efficientnetv2_s_blocks_11_depthwise_conv2d_depthwisex_dilations_0 = const()[name = tensor<string, []>("efficientnetv2_s_blocks_11_depthwise_conv2d_depthwisex_dilations_0"), val = tensor<int32, [2]>([1, 1])];
            tensor<int32, []> efficientnetv2_s_blocks_11_depthwise_conv2d_depthwisex_groups_0 = const()[name = tensor<string, []>("efficientnetv2_s_blocks_11_depthwise_conv2d_depthwisex_groups_0"), val = tensor<int32, []>(512)];
            tensor<int32, [4]> efficientnetv2_s_blocks_11_depthwise_conv2d_depthwisex_pad_0 = const()[name = tensor<string, []>("efficientnetv2_s_blocks_11_depthwise_conv2d_depthwisex_pad_0"), val = tensor<int32, [4]>([0, 0, 0, 0])];
            tensor<fp16, [512, 1, 3, 3]> efficientnetv2_s_blocks_11_tpu_batch_normalization_1_FusedBatchNormV3_nchw_weight_0_to_fp16 = const()[name = tensor<string, []>("efficientnetv2_s_blocks_11_tpu_batch_normalization_1_FusedBatchNormV3_nchw_weight_0_to_fp16"), val = tensor<fp16, [512, 1, 3, 3]>(BLOBFILE(path = tensor<string, []>("@model_path/weights/weight.bin"), offset = tensor<uint64, []>(2060224)))];
            tensor<fp16, [512]> efficientnetv2_s_blocks_11_tpu_batch_normalization_1_FusedBatchNormV3_nchw_bias_0_to_fp16 = const()[name = tensor<string, []>("efficientnetv2_s_blocks_11_tpu_batch_normalization_1_FusedBatchNormV3_nchw_bias_0_to_fp16"), val = tensor<fp16, [512]>(BLOBFILE(path = tensor<string, []>("@model_path/weights/weight.bin"), offset = tensor<uint64, []>(2069504)))];
            tensor<fp16, [1, 512, 16, 16]> efficientnetv2_s_blocks_11_tpu_batch_normalization_1_FusedBatchNormV3_nchw_cast = conv(bias = efficientnetv2_s_blocks_11_tpu_batch_normalization_1_FusedBatchNormV3_nchw_bias_0_to_fp16, dilations = efficientnetv2_s_blocks_11_depthwise_conv2d_depthwisex_dilations_0, groups = efficientnetv2_s_blocks_11_depthwise_conv2d_depthwisex_groups_0, pad = efficientnetv2_s_blocks_11_depthwise_conv2d_depthwisex_pad_0, pad_type = efficientnetv2_s_blocks_11_depthwise_conv2d_depthwisex_pad_type_0, strides = efficientnetv2_s_blocks_11_depthwise_conv2d_depthwisex_strides_0, weight = efficientnetv2_s_blocks_11_tpu_batch_normalization_1_FusedBatchNormV3_nchw_weight_0_to_fp16, x = pad_12_cast);
            tensor<fp16, [1, 512, 16, 16]> efficientnetv2_s_blocks_11_mul_3_cast = silu(x = efficientnetv2_s_blocks_11_tpu_batch_normalization_1_FusedBatchNormV3_nchw_cast);
            tensor<bool, []> efficientnetv2_s_blocks_11_se_Mean_keep_dims_0 = const()[name = tensor<string, []>("efficientnetv2_s_blocks_11_se_Mean_keep_dims_0"), val = tensor<bool, []>(true)];
            tensor<int32, [2]> const_3 = const()[name = tensor<string, []>("const_3"), val = tensor<int32, [2]>([2, 3])];
            tensor<fp16, [1, 512, 1, 1]> efficientnetv2_s_blocks_11_se_Mean_cast = reduce_mean(axes = const_3, keep_dims = efficientnetv2_s_blocks_11_se_Mean_keep_dims_0, x = efficientnetv2_s_blocks_11_mul_3_cast);
            tensor<string, []> efficientnetv2_s_blocks_11_se_conv2d_Conv2Dx_pad_type_0 = const()[name = tensor<string, []>("efficientnetv2_s_blocks_11_se_conv2d_Conv2Dx_pad_type_0"), val = tensor<string, []>("same")];
            tensor<int32, [2]> efficientnetv2_s_blocks_11_se_conv2d_Conv2Dx_strides_0 = const()[name = tensor<string, []>("efficientnetv2_s_blocks_11_se_conv2d_Conv2Dx_strides_0"), val = tensor<int32, [2]>([1, 1])];
            tensor<int32, [2]> efficientnetv2_s_blocks_11_se_conv2d_Conv2Dx_dilations_0 = const()[name = tensor<string, []>("efficientnetv2_s_blocks_11_se_conv2d_Conv2Dx_dilations_0"), val = tensor<int32, [2]>([1, 1])];
            tensor<int32, []> efficientnetv2_s_blocks_11_se_conv2d_Conv2Dx_groups_0 = const()[name = tensor<string, []>("efficientnetv2_s_blocks_11_se_conv2d_Conv2Dx_groups_0"), val = tensor<int32, []>(1)];
            tensor<int32, [4]> efficientnetv2_s_blocks_11_se_conv2d_Conv2Dx_pad_0 = const()[name = tensor<string, []>("efficientnetv2_s_blocks_11_se_conv2d_Conv2Dx_pad_0"), val = tensor<int32, [4]>([0, 0, 0, 0])];
            tensor<fp16, [32, 512, 1, 1]> transpose_76_to_fp16 = const()[name = tensor<string, []>("transpose_76_to_fp16"), val = tensor<fp16, [32, 512, 1, 1]>(BLOBFILE(path = tensor<string, []>("@model_path/weights/weight.bin"), offset = tensor<uint64, []>(2070592)))];
            tensor<fp16, [32]> const_92_to_fp16 = const()[name = tensor<string, []>("const_92_to_fp16"), val = tensor<fp16, [32]>(BLOBFILE(path = tensor<string, []>("@model_path/weights/weight.bin"), offset = tensor<uint64, []>(2103424)))];
            tensor<fp16, [1, 32, 1, 1]> efficientnetv2_s_blocks_11_se_conv2d_BiasAdd_cast = conv(bias = const_92_to_fp16, dilations = efficientnetv2_s_blocks_11_se_conv2d_Conv2Dx_dilations_0, groups = efficientnetv2_s_blocks_11_se_conv2d_Conv2Dx_groups_0, pad = efficientnetv2_s_blocks_11_se_conv2d_Conv2Dx_pad_0, pad_type = efficientnetv2_s_blocks_11_se_conv2d_Conv2Dx_pad_type_0, strides = efficientnetv2_s_blocks_11_se_conv2d_Conv2Dx_strides_0, weight = transpose_76_to_fp16, x = efficientnetv2_s_blocks_11_se_Mean_cast);
            tensor<fp16, [1, 32, 1, 1]> efficientnetv2_s_blocks_11_se_mul_1_cast = silu(x = efficientnetv2_s_blocks_11_se_conv2d_BiasAdd_cast);
            tensor<string, []> efficientnetv2_s_blocks_11_se_conv2d_1_Conv2Dx_pad_type_0 = const()[name = tensor<string, []>("efficientnetv2_s_blocks_11_se_conv2d_1_Conv2Dx_pad_type_0"), val = tensor<string, []>("same")];
            tensor<int32, [2]> efficientnetv2_s_blocks_11_se_conv2d_1_Conv2Dx_strides_0 = const()[name = tensor<string, []>("efficientnetv2_s_blocks_11_se_conv2d_1_Conv2Dx_strides_0"), val = tensor<int32, [2]>([1, 1])];
            tensor<int32, [2]> efficientnetv2_s_blocks_11_se_conv2d_1_Conv2Dx_dilations_0 = const()[name = tensor<string, []>("efficientnetv2_s_blocks_11_se_conv2d_1_Conv2Dx_dilations_0"), val = tensor<int32, [2]>([1, 1])];
            tensor<int32, []> efficientnetv2_s_blocks_11_se_conv2d_1_Conv2Dx_groups_0 = const()[name = tensor<string, []>("efficientnetv2_s_blocks_11_se_conv2d_1_Conv2Dx_groups_0"), val = tensor<int32, []>(1)];
            tensor<int32, [4]> efficientnetv2_s_blocks_11_se_conv2d_1_Conv2Dx_pad_0 = const()[name = tensor<string, []>("efficientnetv2_s_blocks_11_se_conv2d_1_Conv2Dx_pad_0"), val = tensor<int32, [4]>([0, 0, 0, 0])];
            tensor<fp16, [512, 32, 1, 1]> transpose_78_to_fp16 = const()[name = tensor<string, []>("transpose_78_to_fp16"), val = tensor<fp16, [512, 32, 1, 1]>(BLOBFILE(path = tensor<string, []>("@model_path/weights/weight.bin"), offset = tensor<uint64, []>(2103552)))];
            tensor<fp16, [512]> const_93_to_fp16 = const()[name = tensor<string, []>("const_93_to_fp16"), val = tensor<fp16, [512]>(BLOBFILE(path = tensor<string, []>("@model_path/weights/weight.bin"), offset = tensor<uint64, []>(2136384)))];
            tensor<fp16, [1, 512, 1, 1]> efficientnetv2_s_blocks_11_se_conv2d_1_BiasAdd_cast = conv(bias = const_93_to_fp16, dilations = efficientnetv2_s_blocks_11_se_conv2d_1_Conv2Dx_dilations_0, groups = efficientnetv2_s_blocks_11_se_conv2d_1_Conv2Dx_groups_0, pad = efficientnetv2_s_blocks_11_se_conv2d_1_Conv2Dx_pad_0, pad_type = efficientnetv2_s_blocks_11_se_conv2d_1_Conv2Dx_pad_type_0, strides = efficientnetv2_s_blocks_11_se_conv2d_1_Conv2Dx_strides_0, weight = transpose_78_to_fp16, x = efficientnetv2_s_blocks_11_se_mul_1_cast);
            tensor<fp16, [1, 512, 1, 1]> efficientnetv2_s_blocks_11_se_Sigmoid_1_cast = sigmoid(x = efficientnetv2_s_blocks_11_se_conv2d_1_BiasAdd_cast);
            tensor<fp16, [1, 512, 16, 16]> efficientnetv2_s_blocks_11_se_mul_2_cast = mul(x = efficientnetv2_s_blocks_11_se_Sigmoid_1_cast, y = efficientnetv2_s_blocks_11_mul_3_cast);
            tensor<string, []> efficientnetv2_s_blocks_11_conv2d_1_Conv2Dx_pad_type_0 = const()[name = tensor<string, []>("efficientnetv2_s_blocks_11_conv2d_1_Conv2Dx_pad_type_0"), val = tensor<string, []>("same")];
            tensor<int32, [2]> efficientnetv2_s_blocks_11_conv2d_1_Conv2Dx_strides_0 = const()[name = tensor<string, []>("efficientnetv2_s_blocks_11_conv2d_1_Conv2Dx_strides_0"), val = tensor<int32, [2]>([1, 1])];
            tensor<int32, [2]> efficientnetv2_s_blocks_11_conv2d_1_Conv2Dx_dilations_0 = const()[name = tensor<string, []>("efficientnetv2_s_blocks_11_conv2d_1_Conv2Dx_dilations_0"), val = tensor<int32, [2]>([1, 1])];
            tensor<int32, []> efficientnetv2_s_blocks_11_conv2d_1_Conv2Dx_groups_0 = const()[name = tensor<string, []>("efficientnetv2_s_blocks_11_conv2d_1_Conv2Dx_groups_0"), val = tensor<int32, []>(1)];
            tensor<int32, [4]> efficientnetv2_s_blocks_11_conv2d_1_Conv2Dx_pad_0 = const()[name = tensor<string, []>("efficientnetv2_s_blocks_11_conv2d_1_Conv2Dx_pad_0"), val = tensor<int32, [4]>([0, 0, 0, 0])];
            tensor<fp16, [128, 512, 1, 1]> efficientnetv2_s_blocks_11_tpu_batch_normalization_2_FusedBatchNormV3_nchw_weight_0_to_fp16 = const()[name = tensor<string, []>("efficientnetv2_s_blocks_11_tpu_batch_normalization_2_FusedBatchNormV3_nchw_weight_0_to_fp16"), val = tensor<fp16, [128, 512, 1, 1]>(BLOBFILE(path = tensor<string, []>("@model_path/weights/weight.bin"), offset = tensor<uint64, []>(2137472)))];
            tensor<fp16, [128]> efficientnetv2_s_blocks_11_tpu_batch_normalization_2_FusedBatchNormV3_nchw_bias_0_to_fp16 = const()[name = tensor<string, []>("efficientnetv2_s_blocks_11_tpu_batch_normalization_2_FusedBatchNormV3_nchw_bias_0_to_fp16"), val = tensor<fp16, [128]>(BLOBFILE(path = tensor<string, []>("@model_path/weights/weight.bin"), offset = tensor<uint64, []>(2268608)))];
            tensor<fp16, [1, 128, 16, 16]> efficientnetv2_s_blocks_11_tpu_batch_normalization_2_FusedBatchNormV3_nchw_cast = conv(bias = efficientnetv2_s_blocks_11_tpu_batch_normalization_2_FusedBatchNormV3_nchw_bias_0_to_fp16, dilations = efficientnetv2_s_blocks_11_conv2d_1_Conv2Dx_dilations_0, groups = efficientnetv2_s_blocks_11_conv2d_1_Conv2Dx_groups_0, pad = efficientnetv2_s_blocks_11_conv2d_1_Conv2Dx_pad_0, pad_type = efficientnetv2_s_blocks_11_conv2d_1_Conv2Dx_pad_type_0, strides = efficientnetv2_s_blocks_11_conv2d_1_Conv2Dx_strides_0, weight = efficientnetv2_s_blocks_11_tpu_batch_normalization_2_FusedBatchNormV3_nchw_weight_0_to_fp16, x = efficientnetv2_s_blocks_11_se_mul_2_cast);
            tensor<fp16, [1, 128, 16, 16]> efficientnetv2_s_blocks_11_Add_cast = add(x = efficientnetv2_s_blocks_11_tpu_batch_normalization_2_FusedBatchNormV3_nchw_cast, y = efficientnetv2_s_blocks_10_tpu_batch_normalization_2_FusedBatchNormV3_nchw_cast);
            tensor<string, []> efficientnetv2_s_blocks_12_conv2d_Conv2Dx_pad_type_0 = const()[name = tensor<string, []>("efficientnetv2_s_blocks_12_conv2d_Conv2Dx_pad_type_0"), val = tensor<string, []>("same")];
            tensor<int32, [2]> efficientnetv2_s_blocks_12_conv2d_Conv2Dx_strides_0 = const()[name = tensor<string, []>("efficientnetv2_s_blocks_12_conv2d_Conv2Dx_strides_0"), val = tensor<int32, [2]>([1, 1])];
            tensor<int32, [2]> efficientnetv2_s_blocks_12_conv2d_Conv2Dx_dilations_0 = const()[name = tensor<string, []>("efficientnetv2_s_blocks_12_conv2d_Conv2Dx_dilations_0"), val = tensor<int32, [2]>([1, 1])];
            tensor<int32, []> efficientnetv2_s_blocks_12_conv2d_Conv2Dx_groups_0 = const()[name = tensor<string, []>("efficientnetv2_s_blocks_12_conv2d_Conv2Dx_groups_0"), val = tensor<int32, []>(1)];
            tensor<int32, [4]> efficientnetv2_s_blocks_12_conv2d_Conv2Dx_pad_0 = const()[name = tensor<string, []>("efficientnetv2_s_blocks_12_conv2d_Conv2Dx_pad_0"), val = tensor<int32, [4]>([0, 0, 0, 0])];
            tensor<fp16, [512, 128, 1, 1]> efficientnetv2_s_blocks_12_tpu_batch_normalization_FusedBatchNormV3_nchw_weight_0_to_fp16 = const()[name = tensor<string, []>("efficientnetv2_s_blocks_12_tpu_batch_normalization_FusedBatchNormV3_nchw_weight_0_to_fp16"), val = tensor<fp16, [512, 128, 1, 1]>(BLOBFILE(path = tensor<string, []>("@model_path/weights/weight.bin"), offset = tensor<uint64, []>(2268928)))];
            tensor<fp16, [512]> efficientnetv2_s_blocks_12_tpu_batch_normalization_FusedBatchNormV3_nchw_bias_0_to_fp16 = const()[name = tensor<string, []>("efficientnetv2_s_blocks_12_tpu_batch_normalization_FusedBatchNormV3_nchw_bias_0_to_fp16"), val = tensor<fp16, [512]>(BLOBFILE(path = tensor<string, []>("@model_path/weights/weight.bin"), offset = tensor<uint64, []>(2400064)))];
            tensor<fp16, [1, 512, 16, 16]> efficientnetv2_s_blocks_12_tpu_batch_normalization_FusedBatchNormV3_nchw_cast = conv(bias = efficientnetv2_s_blocks_12_tpu_batch_normalization_FusedBatchNormV3_nchw_bias_0_to_fp16, dilations = efficientnetv2_s_blocks_12_conv2d_Conv2Dx_dilations_0, groups = efficientnetv2_s_blocks_12_conv2d_Conv2Dx_groups_0, pad = efficientnetv2_s_blocks_12_conv2d_Conv2Dx_pad_0, pad_type = efficientnetv2_s_blocks_12_conv2d_Conv2Dx_pad_type_0, strides = efficientnetv2_s_blocks_12_conv2d_Conv2Dx_strides_0, weight = efficientnetv2_s_blocks_12_tpu_batch_normalization_FusedBatchNormV3_nchw_weight_0_to_fp16, x = efficientnetv2_s_blocks_11_Add_cast);
            tensor<fp16, [1, 512, 16, 16]> efficientnetv2_s_blocks_12_mul_1_cast = silu(x = efficientnetv2_s_blocks_12_tpu_batch_normalization_FusedBatchNormV3_nchw_cast);
            tensor<string, []> efficientnetv2_s_blocks_12_Pad_mode_0 = const()[name = tensor<string, []>("efficientnetv2_s_blocks_12_Pad_mode_0"), val = tensor<string, []>("constant")];
            tensor<int32, [8]> pad_13_pad_0 = const()[name = tensor<string, []>("pad_13_pad_0"), val = tensor<int32, [8]>([0, 0, 0, 0, 1, 1, 1, 1])];
            tensor<fp16, []> efficientnetv2_s_blocks_12_Pad_constant_val_0_to_fp16 = const()[name = tensor<string, []>("efficientnetv2_s_blocks_12_Pad_constant_val_0_to_fp16"), val = tensor<fp16, []>(0x0p+0)];
            tensor<fp16, [1, 512, 18, 18]> pad_13_cast = pad(constant_val = efficientnetv2_s_blocks_12_Pad_constant_val_0_to_fp16, mode = efficientnetv2_s_blocks_12_Pad_mode_0, pad = pad_13_pad_0, x = efficientnetv2_s_blocks_12_mul_1_cast);
            tensor<string, []> efficientnetv2_s_blocks_12_depthwise_conv2d_depthwisex_pad_type_0 = const()[name = tensor<string, []>("efficientnetv2_s_blocks_12_depthwise_conv2d_depthwisex_pad_type_0"), val = tensor<string, []>("valid")];
            tensor<int32, [2]> efficientnetv2_s_blocks_12_depthwise_conv2d_depthwisex_strides_0 = const()[name = tensor<string, []>("efficientnetv2_s_blocks_12_depthwise_conv2d_depthwisex_strides_0"), val = tensor<int32, [2]>([1, 1])];
            tensor<int32, [2]> efficientnetv2_s_blocks_12_depthwise_conv2d_depthwisex_dilations_0 = const()[name = tensor<string, []>("efficientnetv2_s_blocks_12_depthwise_conv2d_depthwisex_dilations_0"), val = tensor<int32, [2]>([1, 1])];
            tensor<int32, []> efficientnetv2_s_blocks_12_depthwise_conv2d_depthwisex_groups_0 = const()[name = tensor<string, []>("efficientnetv2_s_blocks_12_depthwise_conv2d_depthwisex_groups_0"), val = tensor<int32, []>(512)];
            tensor<int32, [4]> efficientnetv2_s_blocks_12_depthwise_conv2d_depthwisex_pad_0 = const()[name = tensor<string, []>("efficientnetv2_s_blocks_12_depthwise_conv2d_depthwisex_pad_0"), val = tensor<int32, [4]>([0, 0, 0, 0])];
            tensor<fp16, [512, 1, 3, 3]> efficientnetv2_s_blocks_12_tpu_batch_normalization_1_FusedBatchNormV3_nchw_weight_0_to_fp16 = const()[name = tensor<string, []>("efficientnetv2_s_blocks_12_tpu_batch_normalization_1_FusedBatchNormV3_nchw_weight_0_to_fp16"), val = tensor<fp16, [512, 1, 3, 3]>(BLOBFILE(path = tensor<string, []>("@model_path/weights/weight.bin"), offset = tensor<uint64, []>(2401152)))];
            tensor<fp16, [512]> efficientnetv2_s_blocks_12_tpu_batch_normalization_1_FusedBatchNormV3_nchw_bias_0_to_fp16 = const()[name = tensor<string, []>("efficientnetv2_s_blocks_12_tpu_batch_normalization_1_FusedBatchNormV3_nchw_bias_0_to_fp16"), val = tensor<fp16, [512]>(BLOBFILE(path = tensor<string, []>("@model_path/weights/weight.bin"), offset = tensor<uint64, []>(2410432)))];
            tensor<fp16, [1, 512, 16, 16]> efficientnetv2_s_blocks_12_tpu_batch_normalization_1_FusedBatchNormV3_nchw_cast = conv(bias = efficientnetv2_s_blocks_12_tpu_batch_normalization_1_FusedBatchNormV3_nchw_bias_0_to_fp16, dilations = efficientnetv2_s_blocks_12_depthwise_conv2d_depthwisex_dilations_0, groups = efficientnetv2_s_blocks_12_depthwise_conv2d_depthwisex_groups_0, pad = efficientnetv2_s_blocks_12_depthwise_conv2d_depthwisex_pad_0, pad_type = efficientnetv2_s_blocks_12_depthwise_conv2d_depthwisex_pad_type_0, strides = efficientnetv2_s_blocks_12_depthwise_conv2d_depthwisex_strides_0, weight = efficientnetv2_s_blocks_12_tpu_batch_normalization_1_FusedBatchNormV3_nchw_weight_0_to_fp16, x = pad_13_cast);
            tensor<fp16, [1, 512, 16, 16]> efficientnetv2_s_blocks_12_mul_3_cast = silu(x = efficientnetv2_s_blocks_12_tpu_batch_normalization_1_FusedBatchNormV3_nchw_cast);
            tensor<bool, []> efficientnetv2_s_blocks_12_se_Mean_keep_dims_0 = const()[name = tensor<string, []>("efficientnetv2_s_blocks_12_se_Mean_keep_dims_0"), val = tensor<bool, []>(true)];
            tensor<int32, [2]> const_6 = const()[name = tensor<string, []>("const_6"), val = tensor<int32, [2]>([2, 3])];
            tensor<fp16, [1, 512, 1, 1]> efficientnetv2_s_blocks_12_se_Mean_cast = reduce_mean(axes = const_6, keep_dims = efficientnetv2_s_blocks_12_se_Mean_keep_dims_0, x = efficientnetv2_s_blocks_12_mul_3_cast);
            tensor<string, []> efficientnetv2_s_blocks_12_se_conv2d_Conv2Dx_pad_type_0 = const()[name = tensor<string, []>("efficientnetv2_s_blocks_12_se_conv2d_Conv2Dx_pad_type_0"), val = tensor<string, []>("same")];
            tensor<int32, [2]> efficientnetv2_s_blocks_12_se_conv2d_Conv2Dx_strides_0 = const()[name = tensor<string, []>("efficientnetv2_s_blocks_12_se_conv2d_Conv2Dx_strides_0"), val = tensor<int32, [2]>([1, 1])];
            tensor<int32, [2]> efficientnetv2_s_blocks_12_se_conv2d_Conv2Dx_dilations_0 = const()[name = tensor<string, []>("efficientnetv2_s_blocks_12_se_conv2d_Conv2Dx_dilations_0"), val = tensor<int32, [2]>([1, 1])];
            tensor<int32, []> efficientnetv2_s_blocks_12_se_conv2d_Conv2Dx_groups_0 = const()[name = tensor<string, []>("efficientnetv2_s_blocks_12_se_conv2d_Conv2Dx_groups_0"), val = tensor<int32, []>(1)];
            tensor<int32, [4]> efficientnetv2_s_blocks_12_se_conv2d_Conv2Dx_pad_0 = const()[name = tensor<string, []>("efficientnetv2_s_blocks_12_se_conv2d_Conv2Dx_pad_0"), val = tensor<int32, [4]>([0, 0, 0, 0])];
            tensor<fp16, [32, 512, 1, 1]> transpose_89_to_fp16 = const()[name = tensor<string, []>("transpose_89_to_fp16"), val = tensor<fp16, [32, 512, 1, 1]>(BLOBFILE(path = tensor<string, []>("@model_path/weights/weight.bin"), offset = tensor<uint64, []>(2411520)))];
            tensor<fp16, [32]> const_94_to_fp16 = const()[name = tensor<string, []>("const_94_to_fp16"), val = tensor<fp16, [32]>(BLOBFILE(path = tensor<string, []>("@model_path/weights/weight.bin"), offset = tensor<uint64, []>(2444352)))];
            tensor<fp16, [1, 32, 1, 1]> efficientnetv2_s_blocks_12_se_conv2d_BiasAdd_cast = conv(bias = const_94_to_fp16, dilations = efficientnetv2_s_blocks_12_se_conv2d_Conv2Dx_dilations_0, groups = efficientnetv2_s_blocks_12_se_conv2d_Conv2Dx_groups_0, pad = efficientnetv2_s_blocks_12_se_conv2d_Conv2Dx_pad_0, pad_type = efficientnetv2_s_blocks_12_se_conv2d_Conv2Dx_pad_type_0, strides = efficientnetv2_s_blocks_12_se_conv2d_Conv2Dx_strides_0, weight = transpose_89_to_fp16, x = efficientnetv2_s_blocks_12_se_Mean_cast);
            tensor<fp16, [1, 32, 1, 1]> efficientnetv2_s_blocks_12_se_mul_1_cast = silu(x = efficientnetv2_s_blocks_12_se_conv2d_BiasAdd_cast);
            tensor<string, []> efficientnetv2_s_blocks_12_se_conv2d_1_Conv2Dx_pad_type_0 = const()[name = tensor<string, []>("efficientnetv2_s_blocks_12_se_conv2d_1_Conv2Dx_pad_type_0"), val = tensor<string, []>("same")];
            tensor<int32, [2]> efficientnetv2_s_blocks_12_se_conv2d_1_Conv2Dx_strides_0 = const()[name = tensor<string, []>("efficientnetv2_s_blocks_12_se_conv2d_1_Conv2Dx_strides_0"), val = tensor<int32, [2]>([1, 1])];
            tensor<int32, [2]> efficientnetv2_s_blocks_12_se_conv2d_1_Conv2Dx_dilations_0 = const()[name = tensor<string, []>("efficientnetv2_s_blocks_12_se_conv2d_1_Conv2Dx_dilations_0"), val = tensor<int32, [2]>([1, 1])];
            tensor<int32, []> efficientnetv2_s_blocks_12_se_conv2d_1_Conv2Dx_groups_0 = const()[name = tensor<string, []>("efficientnetv2_s_blocks_12_se_conv2d_1_Conv2Dx_groups_0"), val = tensor<int32, []>(1)];
            tensor<int32, [4]> efficientnetv2_s_blocks_12_se_conv2d_1_Conv2Dx_pad_0 = const()[name = tensor<string, []>("efficientnetv2_s_blocks_12_se_conv2d_1_Conv2Dx_pad_0"), val = tensor<int32, [4]>([0, 0, 0, 0])];
            tensor<fp16, [512, 32, 1, 1]> transpose_91_to_fp16 = const()[name = tensor<string, []>("transpose_91_to_fp16"), val = tensor<fp16, [512, 32, 1, 1]>(BLOBFILE(path = tensor<string, []>("@model_path/weights/weight.bin"), offset = tensor<uint64, []>(2444480)))];
            tensor<fp16, [512]> const_95_to_fp16 = const()[name = tensor<string, []>("const_95_to_fp16"), val = tensor<fp16, [512]>(BLOBFILE(path = tensor<string, []>("@model_path/weights/weight.bin"), offset = tensor<uint64, []>(2477312)))];
            tensor<fp16, [1, 512, 1, 1]> efficientnetv2_s_blocks_12_se_conv2d_1_BiasAdd_cast = conv(bias = const_95_to_fp16, dilations = efficientnetv2_s_blocks_12_se_conv2d_1_Conv2Dx_dilations_0, groups = efficientnetv2_s_blocks_12_se_conv2d_1_Conv2Dx_groups_0, pad = efficientnetv2_s_blocks_12_se_conv2d_1_Conv2Dx_pad_0, pad_type = efficientnetv2_s_blocks_12_se_conv2d_1_Conv2Dx_pad_type_0, strides = efficientnetv2_s_blocks_12_se_conv2d_1_Conv2Dx_strides_0, weight = transpose_91_to_fp16, x = efficientnetv2_s_blocks_12_se_mul_1_cast);
            tensor<fp16, [1, 512, 1, 1]> efficientnetv2_s_blocks_12_se_Sigmoid_1_cast = sigmoid(x = efficientnetv2_s_blocks_12_se_conv2d_1_BiasAdd_cast);
            tensor<fp16, [1, 512, 16, 16]> efficientnetv2_s_blocks_12_se_mul_2_cast = mul(x = efficientnetv2_s_blocks_12_se_Sigmoid_1_cast, y = efficientnetv2_s_blocks_12_mul_3_cast);
            tensor<string, []> efficientnetv2_s_blocks_12_conv2d_1_Conv2Dx_pad_type_0 = const()[name = tensor<string, []>("efficientnetv2_s_blocks_12_conv2d_1_Conv2Dx_pad_type_0"), val = tensor<string, []>("same")];
            tensor<int32, [2]> efficientnetv2_s_blocks_12_conv2d_1_Conv2Dx_strides_0 = const()[name = tensor<string, []>("efficientnetv2_s_blocks_12_conv2d_1_Conv2Dx_strides_0"), val = tensor<int32, [2]>([1, 1])];
            tensor<int32, [2]> efficientnetv2_s_blocks_12_conv2d_1_Conv2Dx_dilations_0 = const()[name = tensor<string, []>("efficientnetv2_s_blocks_12_conv2d_1_Conv2Dx_dilations_0"), val = tensor<int32, [2]>([1, 1])];
            tensor<int32, []> efficientnetv2_s_blocks_12_conv2d_1_Conv2Dx_groups_0 = const()[name = tensor<string, []>("efficientnetv2_s_blocks_12_conv2d_1_Conv2Dx_groups_0"), val = tensor<int32, []>(1)];
            tensor<int32, [4]> efficientnetv2_s_blocks_12_conv2d_1_Conv2Dx_pad_0 = const()[name = tensor<string, []>("efficientnetv2_s_blocks_12_conv2d_1_Conv2Dx_pad_0"), val = tensor<int32, [4]>([0, 0, 0, 0])];
            tensor<fp16, [128, 512, 1, 1]> efficientnetv2_s_blocks_12_tpu_batch_normalization_2_FusedBatchNormV3_nchw_weight_0_to_fp16 = const()[name = tensor<string, []>("efficientnetv2_s_blocks_12_tpu_batch_normalization_2_FusedBatchNormV3_nchw_weight_0_to_fp16"), val = tensor<fp16, [128, 512, 1, 1]>(BLOBFILE(path = tensor<string, []>("@model_path/weights/weight.bin"), offset = tensor<uint64, []>(2478400)))];
            tensor<fp16, [128]> efficientnetv2_s_blocks_12_tpu_batch_normalization_2_FusedBatchNormV3_nchw_bias_0_to_fp16 = const()[name = tensor<string, []>("efficientnetv2_s_blocks_12_tpu_batch_normalization_2_FusedBatchNormV3_nchw_bias_0_to_fp16"), val = tensor<fp16, [128]>(BLOBFILE(path = tensor<string, []>("@model_path/weights/weight.bin"), offset = tensor<uint64, []>(2609536)))];
            tensor<fp16, [1, 128, 16, 16]> efficientnetv2_s_blocks_12_tpu_batch_normalization_2_FusedBatchNormV3_nchw_cast = conv(bias = efficientnetv2_s_blocks_12_tpu_batch_normalization_2_FusedBatchNormV3_nchw_bias_0_to_fp16, dilations = efficientnetv2_s_blocks_12_conv2d_1_Conv2Dx_dilations_0, groups = efficientnetv2_s_blocks_12_conv2d_1_Conv2Dx_groups_0, pad = efficientnetv2_s_blocks_12_conv2d_1_Conv2Dx_pad_0, pad_type = efficientnetv2_s_blocks_12_conv2d_1_Conv2Dx_pad_type_0, strides = efficientnetv2_s_blocks_12_conv2d_1_Conv2Dx_strides_0, weight = efficientnetv2_s_blocks_12_tpu_batch_normalization_2_FusedBatchNormV3_nchw_weight_0_to_fp16, x = efficientnetv2_s_blocks_12_se_mul_2_cast);
            tensor<fp16, [1, 128, 16, 16]> efficientnetv2_s_blocks_12_Add_cast = add(x = efficientnetv2_s_blocks_12_tpu_batch_normalization_2_FusedBatchNormV3_nchw_cast, y = efficientnetv2_s_blocks_11_Add_cast);
            tensor<string, []> efficientnetv2_s_blocks_13_conv2d_Conv2Dx_pad_type_0 = const()[name = tensor<string, []>("efficientnetv2_s_blocks_13_conv2d_Conv2Dx_pad_type_0"), val = tensor<string, []>("same")];
            tensor<int32, [2]> efficientnetv2_s_blocks_13_conv2d_Conv2Dx_strides_0 = const()[name = tensor<string, []>("efficientnetv2_s_blocks_13_conv2d_Conv2Dx_strides_0"), val = tensor<int32, [2]>([1, 1])];
            tensor<int32, [2]> efficientnetv2_s_blocks_13_conv2d_Conv2Dx_dilations_0 = const()[name = tensor<string, []>("efficientnetv2_s_blocks_13_conv2d_Conv2Dx_dilations_0"), val = tensor<int32, [2]>([1, 1])];
            tensor<int32, []> efficientnetv2_s_blocks_13_conv2d_Conv2Dx_groups_0 = const()[name = tensor<string, []>("efficientnetv2_s_blocks_13_conv2d_Conv2Dx_groups_0"), val = tensor<int32, []>(1)];
            tensor<int32, [4]> efficientnetv2_s_blocks_13_conv2d_Conv2Dx_pad_0 = const()[name = tensor<string, []>("efficientnetv2_s_blocks_13_conv2d_Conv2Dx_pad_0"), val = tensor<int32, [4]>([0, 0, 0, 0])];
            tensor<fp16, [512, 128, 1, 1]> efficientnetv2_s_blocks_13_tpu_batch_normalization_FusedBatchNormV3_nchw_weight_0_to_fp16 = const()[name = tensor<string, []>("efficientnetv2_s_blocks_13_tpu_batch_normalization_FusedBatchNormV3_nchw_weight_0_to_fp16"), val = tensor<fp16, [512, 128, 1, 1]>(BLOBFILE(path = tensor<string, []>("@model_path/weights/weight.bin"), offset = tensor<uint64, []>(2609856)))];
            tensor<fp16, [512]> efficientnetv2_s_blocks_13_tpu_batch_normalization_FusedBatchNormV3_nchw_bias_0_to_fp16 = const()[name = tensor<string, []>("efficientnetv2_s_blocks_13_tpu_batch_normalization_FusedBatchNormV3_nchw_bias_0_to_fp16"), val = tensor<fp16, [512]>(BLOBFILE(path = tensor<string, []>("@model_path/weights/weight.bin"), offset = tensor<uint64, []>(2740992)))];
            tensor<fp16, [1, 512, 16, 16]> efficientnetv2_s_blocks_13_tpu_batch_normalization_FusedBatchNormV3_nchw_cast = conv(bias = efficientnetv2_s_blocks_13_tpu_batch_normalization_FusedBatchNormV3_nchw_bias_0_to_fp16, dilations = efficientnetv2_s_blocks_13_conv2d_Conv2Dx_dilations_0, groups = efficientnetv2_s_blocks_13_conv2d_Conv2Dx_groups_0, pad = efficientnetv2_s_blocks_13_conv2d_Conv2Dx_pad_0, pad_type = efficientnetv2_s_blocks_13_conv2d_Conv2Dx_pad_type_0, strides = efficientnetv2_s_blocks_13_conv2d_Conv2Dx_strides_0, weight = efficientnetv2_s_blocks_13_tpu_batch_normalization_FusedBatchNormV3_nchw_weight_0_to_fp16, x = efficientnetv2_s_blocks_12_Add_cast);
            tensor<fp16, [1, 512, 16, 16]> efficientnetv2_s_blocks_13_mul_1_cast = silu(x = efficientnetv2_s_blocks_13_tpu_batch_normalization_FusedBatchNormV3_nchw_cast);
            tensor<string, []> efficientnetv2_s_blocks_13_Pad_mode_0 = const()[name = tensor<string, []>("efficientnetv2_s_blocks_13_Pad_mode_0"), val = tensor<string, []>("constant")];
            tensor<int32, [8]> pad_14_pad_0 = const()[name = tensor<string, []>("pad_14_pad_0"), val = tensor<int32, [8]>([0, 0, 0, 0, 1, 1, 1, 1])];
            tensor<fp16, []> efficientnetv2_s_blocks_13_Pad_constant_val_0_to_fp16 = const()[name = tensor<string, []>("efficientnetv2_s_blocks_13_Pad_constant_val_0_to_fp16"), val = tensor<fp16, []>(0x0p+0)];
            tensor<fp16, [1, 512, 18, 18]> pad_14_cast = pad(constant_val = efficientnetv2_s_blocks_13_Pad_constant_val_0_to_fp16, mode = efficientnetv2_s_blocks_13_Pad_mode_0, pad = pad_14_pad_0, x = efficientnetv2_s_blocks_13_mul_1_cast);
            tensor<string, []> efficientnetv2_s_blocks_13_depthwise_conv2d_depthwisex_pad_type_0 = const()[name = tensor<string, []>("efficientnetv2_s_blocks_13_depthwise_conv2d_depthwisex_pad_type_0"), val = tensor<string, []>("valid")];
            tensor<int32, [2]> efficientnetv2_s_blocks_13_depthwise_conv2d_depthwisex_strides_0 = const()[name = tensor<string, []>("efficientnetv2_s_blocks_13_depthwise_conv2d_depthwisex_strides_0"), val = tensor<int32, [2]>([1, 1])];
            tensor<int32, [2]> efficientnetv2_s_blocks_13_depthwise_conv2d_depthwisex_dilations_0 = const()[name = tensor<string, []>("efficientnetv2_s_blocks_13_depthwise_conv2d_depthwisex_dilations_0"), val = tensor<int32, [2]>([1, 1])];
            tensor<int32, []> efficientnetv2_s_blocks_13_depthwise_conv2d_depthwisex_groups_0 = const()[name = tensor<string, []>("efficientnetv2_s_blocks_13_depthwise_conv2d_depthwisex_groups_0"), val = tensor<int32, []>(512)];
            tensor<int32, [4]> efficientnetv2_s_blocks_13_depthwise_conv2d_depthwisex_pad_0 = const()[name = tensor<string, []>("efficientnetv2_s_blocks_13_depthwise_conv2d_depthwisex_pad_0"), val = tensor<int32, [4]>([0, 0, 0, 0])];
            tensor<fp16, [512, 1, 3, 3]> efficientnetv2_s_blocks_13_tpu_batch_normalization_1_FusedBatchNormV3_nchw_weight_0_to_fp16 = const()[name = tensor<string, []>("efficientnetv2_s_blocks_13_tpu_batch_normalization_1_FusedBatchNormV3_nchw_weight_0_to_fp16"), val = tensor<fp16, [512, 1, 3, 3]>(BLOBFILE(path = tensor<string, []>("@model_path/weights/weight.bin"), offset = tensor<uint64, []>(2742080)))];
            tensor<fp16, [512]> efficientnetv2_s_blocks_13_tpu_batch_normalization_1_FusedBatchNormV3_nchw_bias_0_to_fp16 = const()[name = tensor<string, []>("efficientnetv2_s_blocks_13_tpu_batch_normalization_1_FusedBatchNormV3_nchw_bias_0_to_fp16"), val = tensor<fp16, [512]>(BLOBFILE(path = tensor<string, []>("@model_path/weights/weight.bin"), offset = tensor<uint64, []>(2751360)))];
            tensor<fp16, [1, 512, 16, 16]> efficientnetv2_s_blocks_13_tpu_batch_normalization_1_FusedBatchNormV3_nchw_cast = conv(bias = efficientnetv2_s_blocks_13_tpu_batch_normalization_1_FusedBatchNormV3_nchw_bias_0_to_fp16, dilations = efficientnetv2_s_blocks_13_depthwise_conv2d_depthwisex_dilations_0, groups = efficientnetv2_s_blocks_13_depthwise_conv2d_depthwisex_groups_0, pad = efficientnetv2_s_blocks_13_depthwise_conv2d_depthwisex_pad_0, pad_type = efficientnetv2_s_blocks_13_depthwise_conv2d_depthwisex_pad_type_0, strides = efficientnetv2_s_blocks_13_depthwise_conv2d_depthwisex_strides_0, weight = efficientnetv2_s_blocks_13_tpu_batch_normalization_1_FusedBatchNormV3_nchw_weight_0_to_fp16, x = pad_14_cast);
            tensor<fp16, [1, 512, 16, 16]> efficientnetv2_s_blocks_13_mul_3_cast = silu(x = efficientnetv2_s_blocks_13_tpu_batch_normalization_1_FusedBatchNormV3_nchw_cast);
            tensor<bool, []> efficientnetv2_s_blocks_13_se_Mean_keep_dims_0 = const()[name = tensor<string, []>("efficientnetv2_s_blocks_13_se_Mean_keep_dims_0"), val = tensor<bool, []>(true)];
            tensor<int32, [2]> const_9 = const()[name = tensor<string, []>("const_9"), val = tensor<int32, [2]>([2, 3])];
            tensor<fp16, [1, 512, 1, 1]> efficientnetv2_s_blocks_13_se_Mean_cast = reduce_mean(axes = const_9, keep_dims = efficientnetv2_s_blocks_13_se_Mean_keep_dims_0, x = efficientnetv2_s_blocks_13_mul_3_cast);
            tensor<string, []> efficientnetv2_s_blocks_13_se_conv2d_Conv2Dx_pad_type_0 = const()[name = tensor<string, []>("efficientnetv2_s_blocks_13_se_conv2d_Conv2Dx_pad_type_0"), val = tensor<string, []>("same")];
            tensor<int32, [2]> efficientnetv2_s_blocks_13_se_conv2d_Conv2Dx_strides_0 = const()[name = tensor<string, []>("efficientnetv2_s_blocks_13_se_conv2d_Conv2Dx_strides_0"), val = tensor<int32, [2]>([1, 1])];
            tensor<int32, [2]> efficientnetv2_s_blocks_13_se_conv2d_Conv2Dx_dilations_0 = const()[name = tensor<string, []>("efficientnetv2_s_blocks_13_se_conv2d_Conv2Dx_dilations_0"), val = tensor<int32, [2]>([1, 1])];
            tensor<int32, []> efficientnetv2_s_blocks_13_se_conv2d_Conv2Dx_groups_0 = const()[name = tensor<string, []>("efficientnetv2_s_blocks_13_se_conv2d_Conv2Dx_groups_0"), val = tensor<int32, []>(1)];
            tensor<int32, [4]> efficientnetv2_s_blocks_13_se_conv2d_Conv2Dx_pad_0 = const()[name = tensor<string, []>("efficientnetv2_s_blocks_13_se_conv2d_Conv2Dx_pad_0"), val = tensor<int32, [4]>([0, 0, 0, 0])];
            tensor<fp16, [32, 512, 1, 1]> transpose_102_to_fp16 = const()[name = tensor<string, []>("transpose_102_to_fp16"), val = tensor<fp16, [32, 512, 1, 1]>(BLOBFILE(path = tensor<string, []>("@model_path/weights/weight.bin"), offset = tensor<uint64, []>(2752448)))];
            tensor<fp16, [32]> const_96_to_fp16 = const()[name = tensor<string, []>("const_96_to_fp16"), val = tensor<fp16, [32]>(BLOBFILE(path = tensor<string, []>("@model_path/weights/weight.bin"), offset = tensor<uint64, []>(2785280)))];
            tensor<fp16, [1, 32, 1, 1]> efficientnetv2_s_blocks_13_se_conv2d_BiasAdd_cast = conv(bias = const_96_to_fp16, dilations = efficientnetv2_s_blocks_13_se_conv2d_Conv2Dx_dilations_0, groups = efficientnetv2_s_blocks_13_se_conv2d_Conv2Dx_groups_0, pad = efficientnetv2_s_blocks_13_se_conv2d_Conv2Dx_pad_0, pad_type = efficientnetv2_s_blocks_13_se_conv2d_Conv2Dx_pad_type_0, strides = efficientnetv2_s_blocks_13_se_conv2d_Conv2Dx_strides_0, weight = transpose_102_to_fp16, x = efficientnetv2_s_blocks_13_se_Mean_cast);
            tensor<fp16, [1, 32, 1, 1]> efficientnetv2_s_blocks_13_se_mul_1_cast = silu(x = efficientnetv2_s_blocks_13_se_conv2d_BiasAdd_cast);
            tensor<string, []> efficientnetv2_s_blocks_13_se_conv2d_1_Conv2Dx_pad_type_0 = const()[name = tensor<string, []>("efficientnetv2_s_blocks_13_se_conv2d_1_Conv2Dx_pad_type_0"), val = tensor<string, []>("same")];
            tensor<int32, [2]> efficientnetv2_s_blocks_13_se_conv2d_1_Conv2Dx_strides_0 = const()[name = tensor<string, []>("efficientnetv2_s_blocks_13_se_conv2d_1_Conv2Dx_strides_0"), val = tensor<int32, [2]>([1, 1])];
            tensor<int32, [2]> efficientnetv2_s_blocks_13_se_conv2d_1_Conv2Dx_dilations_0 = const()[name = tensor<string, []>("efficientnetv2_s_blocks_13_se_conv2d_1_Conv2Dx_dilations_0"), val = tensor<int32, [2]>([1, 1])];
            tensor<int32, []> efficientnetv2_s_blocks_13_se_conv2d_1_Conv2Dx_groups_0 = const()[name = tensor<string, []>("efficientnetv2_s_blocks_13_se_conv2d_1_Conv2Dx_groups_0"), val = tensor<int32, []>(1)];
            tensor<int32, [4]> efficientnetv2_s_blocks_13_se_conv2d_1_Conv2Dx_pad_0 = const()[name = tensor<string, []>("efficientnetv2_s_blocks_13_se_conv2d_1_Conv2Dx_pad_0"), val = tensor<int32, [4]>([0, 0, 0, 0])];
            tensor<fp16, [512, 32, 1, 1]> transpose_104_to_fp16 = const()[name = tensor<string, []>("transpose_104_to_fp16"), val = tensor<fp16, [512, 32, 1, 1]>(BLOBFILE(path = tensor<string, []>("@model_path/weights/weight.bin"), offset = tensor<uint64, []>(2785408)))];
            tensor<fp16, [512]> const_97_to_fp16 = const()[name = tensor<string, []>("const_97_to_fp16"), val = tensor<fp16, [512]>(BLOBFILE(path = tensor<string, []>("@model_path/weights/weight.bin"), offset = tensor<uint64, []>(2818240)))];
            tensor<fp16, [1, 512, 1, 1]> efficientnetv2_s_blocks_13_se_conv2d_1_BiasAdd_cast = conv(bias = const_97_to_fp16, dilations = efficientnetv2_s_blocks_13_se_conv2d_1_Conv2Dx_dilations_0, groups = efficientnetv2_s_blocks_13_se_conv2d_1_Conv2Dx_groups_0, pad = efficientnetv2_s_blocks_13_se_conv2d_1_Conv2Dx_pad_0, pad_type = efficientnetv2_s_blocks_13_se_conv2d_1_Conv2Dx_pad_type_0, strides = efficientnetv2_s_blocks_13_se_conv2d_1_Conv2Dx_strides_0, weight = transpose_104_to_fp16, x = efficientnetv2_s_blocks_13_se_mul_1_cast);
            tensor<fp16, [1, 512, 1, 1]> efficientnetv2_s_blocks_13_se_Sigmoid_1_cast = sigmoid(x = efficientnetv2_s_blocks_13_se_conv2d_1_BiasAdd_cast);
            tensor<fp16, [1, 512, 16, 16]> efficientnetv2_s_blocks_13_se_mul_2_cast = mul(x = efficientnetv2_s_blocks_13_se_Sigmoid_1_cast, y = efficientnetv2_s_blocks_13_mul_3_cast);
            tensor<string, []> efficientnetv2_s_blocks_13_conv2d_1_Conv2Dx_pad_type_0 = const()[name = tensor<string, []>("efficientnetv2_s_blocks_13_conv2d_1_Conv2Dx_pad_type_0"), val = tensor<string, []>("same")];
            tensor<int32, [2]> efficientnetv2_s_blocks_13_conv2d_1_Conv2Dx_strides_0 = const()[name = tensor<string, []>("efficientnetv2_s_blocks_13_conv2d_1_Conv2Dx_strides_0"), val = tensor<int32, [2]>([1, 1])];
            tensor<int32, [2]> efficientnetv2_s_blocks_13_conv2d_1_Conv2Dx_dilations_0 = const()[name = tensor<string, []>("efficientnetv2_s_blocks_13_conv2d_1_Conv2Dx_dilations_0"), val = tensor<int32, [2]>([1, 1])];
            tensor<int32, []> efficientnetv2_s_blocks_13_conv2d_1_Conv2Dx_groups_0 = const()[name = tensor<string, []>("efficientnetv2_s_blocks_13_conv2d_1_Conv2Dx_groups_0"), val = tensor<int32, []>(1)];
            tensor<int32, [4]> efficientnetv2_s_blocks_13_conv2d_1_Conv2Dx_pad_0 = const()[name = tensor<string, []>("efficientnetv2_s_blocks_13_conv2d_1_Conv2Dx_pad_0"), val = tensor<int32, [4]>([0, 0, 0, 0])];
            tensor<fp16, [128, 512, 1, 1]> efficientnetv2_s_blocks_13_tpu_batch_normalization_2_FusedBatchNormV3_nchw_weight_0_to_fp16 = const()[name = tensor<string, []>("efficientnetv2_s_blocks_13_tpu_batch_normalization_2_FusedBatchNormV3_nchw_weight_0_to_fp16"), val = tensor<fp16, [128, 512, 1, 1]>(BLOBFILE(path = tensor<string, []>("@model_path/weights/weight.bin"), offset = tensor<uint64, []>(2819328)))];
            tensor<fp16, [128]> efficientnetv2_s_blocks_13_tpu_batch_normalization_2_FusedBatchNormV3_nchw_bias_0_to_fp16 = const()[name = tensor<string, []>("efficientnetv2_s_blocks_13_tpu_batch_normalization_2_FusedBatchNormV3_nchw_bias_0_to_fp16"), val = tensor<fp16, [128]>(BLOBFILE(path = tensor<string, []>("@model_path/weights/weight.bin"), offset = tensor<uint64, []>(2950464)))];
            tensor<fp16, [1, 128, 16, 16]> efficientnetv2_s_blocks_13_tpu_batch_normalization_2_FusedBatchNormV3_nchw_cast = conv(bias = efficientnetv2_s_blocks_13_tpu_batch_normalization_2_FusedBatchNormV3_nchw_bias_0_to_fp16, dilations = efficientnetv2_s_blocks_13_conv2d_1_Conv2Dx_dilations_0, groups = efficientnetv2_s_blocks_13_conv2d_1_Conv2Dx_groups_0, pad = efficientnetv2_s_blocks_13_conv2d_1_Conv2Dx_pad_0, pad_type = efficientnetv2_s_blocks_13_conv2d_1_Conv2Dx_pad_type_0, strides = efficientnetv2_s_blocks_13_conv2d_1_Conv2Dx_strides_0, weight = efficientnetv2_s_blocks_13_tpu_batch_normalization_2_FusedBatchNormV3_nchw_weight_0_to_fp16, x = efficientnetv2_s_blocks_13_se_mul_2_cast);
            tensor<fp16, [1, 128, 16, 16]> efficientnetv2_s_blocks_13_Add_cast = add(x = efficientnetv2_s_blocks_13_tpu_batch_normalization_2_FusedBatchNormV3_nchw_cast, y = efficientnetv2_s_blocks_12_Add_cast);
            tensor<string, []> efficientnetv2_s_blocks_14_conv2d_Conv2Dx_pad_type_0 = const()[name = tensor<string, []>("efficientnetv2_s_blocks_14_conv2d_Conv2Dx_pad_type_0"), val = tensor<string, []>("same")];
            tensor<int32, [2]> efficientnetv2_s_blocks_14_conv2d_Conv2Dx_strides_0 = const()[name = tensor<string, []>("efficientnetv2_s_blocks_14_conv2d_Conv2Dx_strides_0"), val = tensor<int32, [2]>([1, 1])];
            tensor<int32, [2]> efficientnetv2_s_blocks_14_conv2d_Conv2Dx_dilations_0 = const()[name = tensor<string, []>("efficientnetv2_s_blocks_14_conv2d_Conv2Dx_dilations_0"), val = tensor<int32, [2]>([1, 1])];
            tensor<int32, []> efficientnetv2_s_blocks_14_conv2d_Conv2Dx_groups_0 = const()[name = tensor<string, []>("efficientnetv2_s_blocks_14_conv2d_Conv2Dx_groups_0"), val = tensor<int32, []>(1)];
            tensor<int32, [4]> efficientnetv2_s_blocks_14_conv2d_Conv2Dx_pad_0 = const()[name = tensor<string, []>("efficientnetv2_s_blocks_14_conv2d_Conv2Dx_pad_0"), val = tensor<int32, [4]>([0, 0, 0, 0])];
            tensor<fp16, [512, 128, 1, 1]> efficientnetv2_s_blocks_14_tpu_batch_normalization_FusedBatchNormV3_nchw_weight_0_to_fp16 = const()[name = tensor<string, []>("efficientnetv2_s_blocks_14_tpu_batch_normalization_FusedBatchNormV3_nchw_weight_0_to_fp16"), val = tensor<fp16, [512, 128, 1, 1]>(BLOBFILE(path = tensor<string, []>("@model_path/weights/weight.bin"), offset = tensor<uint64, []>(2950784)))];
            tensor<fp16, [512]> efficientnetv2_s_blocks_14_tpu_batch_normalization_FusedBatchNormV3_nchw_bias_0_to_fp16 = const()[name = tensor<string, []>("efficientnetv2_s_blocks_14_tpu_batch_normalization_FusedBatchNormV3_nchw_bias_0_to_fp16"), val = tensor<fp16, [512]>(BLOBFILE(path = tensor<string, []>("@model_path/weights/weight.bin"), offset = tensor<uint64, []>(3081920)))];
            tensor<fp16, [1, 512, 16, 16]> efficientnetv2_s_blocks_14_tpu_batch_normalization_FusedBatchNormV3_nchw_cast = conv(bias = efficientnetv2_s_blocks_14_tpu_batch_normalization_FusedBatchNormV3_nchw_bias_0_to_fp16, dilations = efficientnetv2_s_blocks_14_conv2d_Conv2Dx_dilations_0, groups = efficientnetv2_s_blocks_14_conv2d_Conv2Dx_groups_0, pad = efficientnetv2_s_blocks_14_conv2d_Conv2Dx_pad_0, pad_type = efficientnetv2_s_blocks_14_conv2d_Conv2Dx_pad_type_0, strides = efficientnetv2_s_blocks_14_conv2d_Conv2Dx_strides_0, weight = efficientnetv2_s_blocks_14_tpu_batch_normalization_FusedBatchNormV3_nchw_weight_0_to_fp16, x = efficientnetv2_s_blocks_13_Add_cast);
            tensor<fp16, [1, 512, 16, 16]> efficientnetv2_s_blocks_14_mul_1_cast = silu(x = efficientnetv2_s_blocks_14_tpu_batch_normalization_FusedBatchNormV3_nchw_cast);
            tensor<string, []> efficientnetv2_s_blocks_14_Pad_mode_0 = const()[name = tensor<string, []>("efficientnetv2_s_blocks_14_Pad_mode_0"), val = tensor<string, []>("constant")];
            tensor<int32, [8]> pad_15_pad_0 = const()[name = tensor<string, []>("pad_15_pad_0"), val = tensor<int32, [8]>([0, 0, 0, 0, 1, 1, 1, 1])];
            tensor<fp16, []> efficientnetv2_s_blocks_14_Pad_constant_val_0_to_fp16 = const()[name = tensor<string, []>("efficientnetv2_s_blocks_14_Pad_constant_val_0_to_fp16"), val = tensor<fp16, []>(0x0p+0)];
            tensor<fp16, [1, 512, 18, 18]> pad_15_cast = pad(constant_val = efficientnetv2_s_blocks_14_Pad_constant_val_0_to_fp16, mode = efficientnetv2_s_blocks_14_Pad_mode_0, pad = pad_15_pad_0, x = efficientnetv2_s_blocks_14_mul_1_cast);
            tensor<string, []> efficientnetv2_s_blocks_14_depthwise_conv2d_depthwisex_pad_type_0 = const()[name = tensor<string, []>("efficientnetv2_s_blocks_14_depthwise_conv2d_depthwisex_pad_type_0"), val = tensor<string, []>("valid")];
            tensor<int32, [2]> efficientnetv2_s_blocks_14_depthwise_conv2d_depthwisex_strides_0 = const()[name = tensor<string, []>("efficientnetv2_s_blocks_14_depthwise_conv2d_depthwisex_strides_0"), val = tensor<int32, [2]>([1, 1])];
            tensor<int32, [2]> efficientnetv2_s_blocks_14_depthwise_conv2d_depthwisex_dilations_0 = const()[name = tensor<string, []>("efficientnetv2_s_blocks_14_depthwise_conv2d_depthwisex_dilations_0"), val = tensor<int32, [2]>([1, 1])];
            tensor<int32, []> efficientnetv2_s_blocks_14_depthwise_conv2d_depthwisex_groups_0 = const()[name = tensor<string, []>("efficientnetv2_s_blocks_14_depthwise_conv2d_depthwisex_groups_0"), val = tensor<int32, []>(512)];
            tensor<int32, [4]> efficientnetv2_s_blocks_14_depthwise_conv2d_depthwisex_pad_0 = const()[name = tensor<string, []>("efficientnetv2_s_blocks_14_depthwise_conv2d_depthwisex_pad_0"), val = tensor<int32, [4]>([0, 0, 0, 0])];
            tensor<fp16, [512, 1, 3, 3]> efficientnetv2_s_blocks_14_tpu_batch_normalization_1_FusedBatchNormV3_nchw_weight_0_to_fp16 = const()[name = tensor<string, []>("efficientnetv2_s_blocks_14_tpu_batch_normalization_1_FusedBatchNormV3_nchw_weight_0_to_fp16"), val = tensor<fp16, [512, 1, 3, 3]>(BLOBFILE(path = tensor<string, []>("@model_path/weights/weight.bin"), offset = tensor<uint64, []>(3083008)))];
            tensor<fp16, [512]> efficientnetv2_s_blocks_14_tpu_batch_normalization_1_FusedBatchNormV3_nchw_bias_0_to_fp16 = const()[name = tensor<string, []>("efficientnetv2_s_blocks_14_tpu_batch_normalization_1_FusedBatchNormV3_nchw_bias_0_to_fp16"), val = tensor<fp16, [512]>(BLOBFILE(path = tensor<string, []>("@model_path/weights/weight.bin"), offset = tensor<uint64, []>(3092288)))];
            tensor<fp16, [1, 512, 16, 16]> efficientnetv2_s_blocks_14_tpu_batch_normalization_1_FusedBatchNormV3_nchw_cast = conv(bias = efficientnetv2_s_blocks_14_tpu_batch_normalization_1_FusedBatchNormV3_nchw_bias_0_to_fp16, dilations = efficientnetv2_s_blocks_14_depthwise_conv2d_depthwisex_dilations_0, groups = efficientnetv2_s_blocks_14_depthwise_conv2d_depthwisex_groups_0, pad = efficientnetv2_s_blocks_14_depthwise_conv2d_depthwisex_pad_0, pad_type = efficientnetv2_s_blocks_14_depthwise_conv2d_depthwisex_pad_type_0, strides = efficientnetv2_s_blocks_14_depthwise_conv2d_depthwisex_strides_0, weight = efficientnetv2_s_blocks_14_tpu_batch_normalization_1_FusedBatchNormV3_nchw_weight_0_to_fp16, x = pad_15_cast);
            tensor<fp16, [1, 512, 16, 16]> efficientnetv2_s_blocks_14_mul_3_cast = silu(x = efficientnetv2_s_blocks_14_tpu_batch_normalization_1_FusedBatchNormV3_nchw_cast);
            tensor<bool, []> efficientnetv2_s_blocks_14_se_Mean_keep_dims_0 = const()[name = tensor<string, []>("efficientnetv2_s_blocks_14_se_Mean_keep_dims_0"), val = tensor<bool, []>(true)];
            tensor<int32, [2]> const_12 = const()[name = tensor<string, []>("const_12"), val = tensor<int32, [2]>([2, 3])];
            tensor<fp16, [1, 512, 1, 1]> efficientnetv2_s_blocks_14_se_Mean_cast = reduce_mean(axes = const_12, keep_dims = efficientnetv2_s_blocks_14_se_Mean_keep_dims_0, x = efficientnetv2_s_blocks_14_mul_3_cast);
            tensor<string, []> efficientnetv2_s_blocks_14_se_conv2d_Conv2Dx_pad_type_0 = const()[name = tensor<string, []>("efficientnetv2_s_blocks_14_se_conv2d_Conv2Dx_pad_type_0"), val = tensor<string, []>("same")];
            tensor<int32, [2]> efficientnetv2_s_blocks_14_se_conv2d_Conv2Dx_strides_0 = const()[name = tensor<string, []>("efficientnetv2_s_blocks_14_se_conv2d_Conv2Dx_strides_0"), val = tensor<int32, [2]>([1, 1])];
            tensor<int32, [2]> efficientnetv2_s_blocks_14_se_conv2d_Conv2Dx_dilations_0 = const()[name = tensor<string, []>("efficientnetv2_s_blocks_14_se_conv2d_Conv2Dx_dilations_0"), val = tensor<int32, [2]>([1, 1])];
            tensor<int32, []> efficientnetv2_s_blocks_14_se_conv2d_Conv2Dx_groups_0 = const()[name = tensor<string, []>("efficientnetv2_s_blocks_14_se_conv2d_Conv2Dx_groups_0"), val = tensor<int32, []>(1)];
            tensor<int32, [4]> efficientnetv2_s_blocks_14_se_conv2d_Conv2Dx_pad_0 = const()[name = tensor<string, []>("efficientnetv2_s_blocks_14_se_conv2d_Conv2Dx_pad_0"), val = tensor<int32, [4]>([0, 0, 0, 0])];
            tensor<fp16, [32, 512, 1, 1]> transpose_115_to_fp16 = const()[name = tensor<string, []>("transpose_115_to_fp16"), val = tensor<fp16, [32, 512, 1, 1]>(BLOBFILE(path = tensor<string, []>("@model_path/weights/weight.bin"), offset = tensor<uint64, []>(3093376)))];
            tensor<fp16, [32]> const_98_to_fp16 = const()[name = tensor<string, []>("const_98_to_fp16"), val = tensor<fp16, [32]>(BLOBFILE(path = tensor<string, []>("@model_path/weights/weight.bin"), offset = tensor<uint64, []>(3126208)))];
            tensor<fp16, [1, 32, 1, 1]> efficientnetv2_s_blocks_14_se_conv2d_BiasAdd_cast = conv(bias = const_98_to_fp16, dilations = efficientnetv2_s_blocks_14_se_conv2d_Conv2Dx_dilations_0, groups = efficientnetv2_s_blocks_14_se_conv2d_Conv2Dx_groups_0, pad = efficientnetv2_s_blocks_14_se_conv2d_Conv2Dx_pad_0, pad_type = efficientnetv2_s_blocks_14_se_conv2d_Conv2Dx_pad_type_0, strides = efficientnetv2_s_blocks_14_se_conv2d_Conv2Dx_strides_0, weight = transpose_115_to_fp16, x = efficientnetv2_s_blocks_14_se_Mean_cast);
            tensor<fp16, [1, 32, 1, 1]> efficientnetv2_s_blocks_14_se_mul_1_cast = silu(x = efficientnetv2_s_blocks_14_se_conv2d_BiasAdd_cast);
            tensor<string, []> efficientnetv2_s_blocks_14_se_conv2d_1_Conv2Dx_pad_type_0 = const()[name = tensor<string, []>("efficientnetv2_s_blocks_14_se_conv2d_1_Conv2Dx_pad_type_0"), val = tensor<string, []>("same")];
            tensor<int32, [2]> efficientnetv2_s_blocks_14_se_conv2d_1_Conv2Dx_strides_0 = const()[name = tensor<string, []>("efficientnetv2_s_blocks_14_se_conv2d_1_Conv2Dx_strides_0"), val = tensor<int32, [2]>([1, 1])];
            tensor<int32, [2]> efficientnetv2_s_blocks_14_se_conv2d_1_Conv2Dx_dilations_0 = const()[name = tensor<string, []>("efficientnetv2_s_blocks_14_se_conv2d_1_Conv2Dx_dilations_0"), val = tensor<int32, [2]>([1, 1])];
            tensor<int32, []> efficientnetv2_s_blocks_14_se_conv2d_1_Conv2Dx_groups_0 = const()[name = tensor<string, []>("efficientnetv2_s_blocks_14_se_conv2d_1_Conv2Dx_groups_0"), val = tensor<int32, []>(1)];
            tensor<int32, [4]> efficientnetv2_s_blocks_14_se_conv2d_1_Conv2Dx_pad_0 = const()[name = tensor<string, []>("efficientnetv2_s_blocks_14_se_conv2d_1_Conv2Dx_pad_0"), val = tensor<int32, [4]>([0, 0, 0, 0])];
            tensor<fp16, [512, 32, 1, 1]> transpose_117_to_fp16 = const()[name = tensor<string, []>("transpose_117_to_fp16"), val = tensor<fp16, [512, 32, 1, 1]>(BLOBFILE(path = tensor<string, []>("@model_path/weights/weight.bin"), offset = tensor<uint64, []>(3126336)))];
            tensor<fp16, [512]> const_99_to_fp16 = const()[name = tensor<string, []>("const_99_to_fp16"), val = tensor<fp16, [512]>(BLOBFILE(path = tensor<string, []>("@model_path/weights/weight.bin"), offset = tensor<uint64, []>(3159168)))];
            tensor<fp16, [1, 512, 1, 1]> efficientnetv2_s_blocks_14_se_conv2d_1_BiasAdd_cast = conv(bias = const_99_to_fp16, dilations = efficientnetv2_s_blocks_14_se_conv2d_1_Conv2Dx_dilations_0, groups = efficientnetv2_s_blocks_14_se_conv2d_1_Conv2Dx_groups_0, pad = efficientnetv2_s_blocks_14_se_conv2d_1_Conv2Dx_pad_0, pad_type = efficientnetv2_s_blocks_14_se_conv2d_1_Conv2Dx_pad_type_0, strides = efficientnetv2_s_blocks_14_se_conv2d_1_Conv2Dx_strides_0, weight = transpose_117_to_fp16, x = efficientnetv2_s_blocks_14_se_mul_1_cast);
            tensor<fp16, [1, 512, 1, 1]> efficientnetv2_s_blocks_14_se_Sigmoid_1_cast = sigmoid(x = efficientnetv2_s_blocks_14_se_conv2d_1_BiasAdd_cast);
            tensor<fp16, [1, 512, 16, 16]> efficientnetv2_s_blocks_14_se_mul_2_cast = mul(x = efficientnetv2_s_blocks_14_se_Sigmoid_1_cast, y = efficientnetv2_s_blocks_14_mul_3_cast);
            tensor<string, []> efficientnetv2_s_blocks_14_conv2d_1_Conv2Dx_pad_type_0 = const()[name = tensor<string, []>("efficientnetv2_s_blocks_14_conv2d_1_Conv2Dx_pad_type_0"), val = tensor<string, []>("same")];
            tensor<int32, [2]> efficientnetv2_s_blocks_14_conv2d_1_Conv2Dx_strides_0 = const()[name = tensor<string, []>("efficientnetv2_s_blocks_14_conv2d_1_Conv2Dx_strides_0"), val = tensor<int32, [2]>([1, 1])];
            tensor<int32, [2]> efficientnetv2_s_blocks_14_conv2d_1_Conv2Dx_dilations_0 = const()[name = tensor<string, []>("efficientnetv2_s_blocks_14_conv2d_1_Conv2Dx_dilations_0"), val = tensor<int32, [2]>([1, 1])];
            tensor<int32, []> efficientnetv2_s_blocks_14_conv2d_1_Conv2Dx_groups_0 = const()[name = tensor<string, []>("efficientnetv2_s_blocks_14_conv2d_1_Conv2Dx_groups_0"), val = tensor<int32, []>(1)];
            tensor<int32, [4]> efficientnetv2_s_blocks_14_conv2d_1_Conv2Dx_pad_0 = const()[name = tensor<string, []>("efficientnetv2_s_blocks_14_conv2d_1_Conv2Dx_pad_0"), val = tensor<int32, [4]>([0, 0, 0, 0])];
            tensor<fp16, [128, 512, 1, 1]> efficientnetv2_s_blocks_14_tpu_batch_normalization_2_FusedBatchNormV3_nchw_weight_0_to_fp16 = const()[name = tensor<string, []>("efficientnetv2_s_blocks_14_tpu_batch_normalization_2_FusedBatchNormV3_nchw_weight_0_to_fp16"), val = tensor<fp16, [128, 512, 1, 1]>(BLOBFILE(path = tensor<string, []>("@model_path/weights/weight.bin"), offset = tensor<uint64, []>(3160256)))];
            tensor<fp16, [128]> efficientnetv2_s_blocks_14_tpu_batch_normalization_2_FusedBatchNormV3_nchw_bias_0_to_fp16 = const()[name = tensor<string, []>("efficientnetv2_s_blocks_14_tpu_batch_normalization_2_FusedBatchNormV3_nchw_bias_0_to_fp16"), val = tensor<fp16, [128]>(BLOBFILE(path = tensor<string, []>("@model_path/weights/weight.bin"), offset = tensor<uint64, []>(3291392)))];
            tensor<fp16, [1, 128, 16, 16]> efficientnetv2_s_blocks_14_tpu_batch_normalization_2_FusedBatchNormV3_nchw_cast = conv(bias = efficientnetv2_s_blocks_14_tpu_batch_normalization_2_FusedBatchNormV3_nchw_bias_0_to_fp16, dilations = efficientnetv2_s_blocks_14_conv2d_1_Conv2Dx_dilations_0, groups = efficientnetv2_s_blocks_14_conv2d_1_Conv2Dx_groups_0, pad = efficientnetv2_s_blocks_14_conv2d_1_Conv2Dx_pad_0, pad_type = efficientnetv2_s_blocks_14_conv2d_1_Conv2Dx_pad_type_0, strides = efficientnetv2_s_blocks_14_conv2d_1_Conv2Dx_strides_0, weight = efficientnetv2_s_blocks_14_tpu_batch_normalization_2_FusedBatchNormV3_nchw_weight_0_to_fp16, x = efficientnetv2_s_blocks_14_se_mul_2_cast);
            tensor<fp16, [1, 128, 16, 16]> efficientnetv2_s_blocks_14_Add_cast = add(x = efficientnetv2_s_blocks_14_tpu_batch_normalization_2_FusedBatchNormV3_nchw_cast, y = efficientnetv2_s_blocks_13_Add_cast);
            tensor<string, []> efficientnetv2_s_blocks_15_conv2d_Conv2Dx_pad_type_0 = const()[name = tensor<string, []>("efficientnetv2_s_blocks_15_conv2d_Conv2Dx_pad_type_0"), val = tensor<string, []>("same")];
            tensor<int32, [2]> efficientnetv2_s_blocks_15_conv2d_Conv2Dx_strides_0 = const()[name = tensor<string, []>("efficientnetv2_s_blocks_15_conv2d_Conv2Dx_strides_0"), val = tensor<int32, [2]>([1, 1])];
            tensor<int32, [2]> efficientnetv2_s_blocks_15_conv2d_Conv2Dx_dilations_0 = const()[name = tensor<string, []>("efficientnetv2_s_blocks_15_conv2d_Conv2Dx_dilations_0"), val = tensor<int32, [2]>([1, 1])];
            tensor<int32, []> efficientnetv2_s_blocks_15_conv2d_Conv2Dx_groups_0 = const()[name = tensor<string, []>("efficientnetv2_s_blocks_15_conv2d_Conv2Dx_groups_0"), val = tensor<int32, []>(1)];
            tensor<int32, [4]> efficientnetv2_s_blocks_15_conv2d_Conv2Dx_pad_0 = const()[name = tensor<string, []>("efficientnetv2_s_blocks_15_conv2d_Conv2Dx_pad_0"), val = tensor<int32, [4]>([0, 0, 0, 0])];
            tensor<fp16, [512, 128, 1, 1]> efficientnetv2_s_blocks_15_tpu_batch_normalization_FusedBatchNormV3_nchw_weight_0_to_fp16 = const()[name = tensor<string, []>("efficientnetv2_s_blocks_15_tpu_batch_normalization_FusedBatchNormV3_nchw_weight_0_to_fp16"), val = tensor<fp16, [512, 128, 1, 1]>(BLOBFILE(path = tensor<string, []>("@model_path/weights/weight.bin"), offset = tensor<uint64, []>(3291712)))];
            tensor<fp16, [512]> efficientnetv2_s_blocks_15_tpu_batch_normalization_FusedBatchNormV3_nchw_bias_0_to_fp16 = const()[name = tensor<string, []>("efficientnetv2_s_blocks_15_tpu_batch_normalization_FusedBatchNormV3_nchw_bias_0_to_fp16"), val = tensor<fp16, [512]>(BLOBFILE(path = tensor<string, []>("@model_path/weights/weight.bin"), offset = tensor<uint64, []>(3422848)))];
            tensor<fp16, [1, 512, 16, 16]> efficientnetv2_s_blocks_15_tpu_batch_normalization_FusedBatchNormV3_nchw_cast = conv(bias = efficientnetv2_s_blocks_15_tpu_batch_normalization_FusedBatchNormV3_nchw_bias_0_to_fp16, dilations = efficientnetv2_s_blocks_15_conv2d_Conv2Dx_dilations_0, groups = efficientnetv2_s_blocks_15_conv2d_Conv2Dx_groups_0, pad = efficientnetv2_s_blocks_15_conv2d_Conv2Dx_pad_0, pad_type = efficientnetv2_s_blocks_15_conv2d_Conv2Dx_pad_type_0, strides = efficientnetv2_s_blocks_15_conv2d_Conv2Dx_strides_0, weight = efficientnetv2_s_blocks_15_tpu_batch_normalization_FusedBatchNormV3_nchw_weight_0_to_fp16, x = efficientnetv2_s_blocks_14_Add_cast);
            tensor<fp16, [1, 512, 16, 16]> efficientnetv2_s_blocks_15_mul_1_cast = silu(x = efficientnetv2_s_blocks_15_tpu_batch_normalization_FusedBatchNormV3_nchw_cast);
            tensor<string, []> efficientnetv2_s_blocks_15_Pad_mode_0 = const()[name = tensor<string, []>("efficientnetv2_s_blocks_15_Pad_mode_0"), val = tensor<string, []>("constant")];
            tensor<int32, [8]> pad_16_pad_0 = const()[name = tensor<string, []>("pad_16_pad_0"), val = tensor<int32, [8]>([0, 0, 0, 0, 1, 1, 1, 1])];
            tensor<fp16, []> efficientnetv2_s_blocks_15_Pad_constant_val_0_to_fp16 = const()[name = tensor<string, []>("efficientnetv2_s_blocks_15_Pad_constant_val_0_to_fp16"), val = tensor<fp16, []>(0x0p+0)];
            tensor<fp16, [1, 512, 18, 18]> pad_16_cast = pad(constant_val = efficientnetv2_s_blocks_15_Pad_constant_val_0_to_fp16, mode = efficientnetv2_s_blocks_15_Pad_mode_0, pad = pad_16_pad_0, x = efficientnetv2_s_blocks_15_mul_1_cast);
            tensor<string, []> efficientnetv2_s_blocks_15_depthwise_conv2d_depthwisex_pad_type_0 = const()[name = tensor<string, []>("efficientnetv2_s_blocks_15_depthwise_conv2d_depthwisex_pad_type_0"), val = tensor<string, []>("valid")];
            tensor<int32, [2]> efficientnetv2_s_blocks_15_depthwise_conv2d_depthwisex_strides_0 = const()[name = tensor<string, []>("efficientnetv2_s_blocks_15_depthwise_conv2d_depthwisex_strides_0"), val = tensor<int32, [2]>([1, 1])];
            tensor<int32, [2]> efficientnetv2_s_blocks_15_depthwise_conv2d_depthwisex_dilations_0 = const()[name = tensor<string, []>("efficientnetv2_s_blocks_15_depthwise_conv2d_depthwisex_dilations_0"), val = tensor<int32, [2]>([1, 1])];
            tensor<int32, []> efficientnetv2_s_blocks_15_depthwise_conv2d_depthwisex_groups_0 = const()[name = tensor<string, []>("efficientnetv2_s_blocks_15_depthwise_conv2d_depthwisex_groups_0"), val = tensor<int32, []>(512)];
            tensor<int32, [4]> efficientnetv2_s_blocks_15_depthwise_conv2d_depthwisex_pad_0 = const()[name = tensor<string, []>("efficientnetv2_s_blocks_15_depthwise_conv2d_depthwisex_pad_0"), val = tensor<int32, [4]>([0, 0, 0, 0])];
            tensor<fp16, [512, 1, 3, 3]> efficientnetv2_s_blocks_15_tpu_batch_normalization_1_FusedBatchNormV3_nchw_weight_0_to_fp16 = const()[name = tensor<string, []>("efficientnetv2_s_blocks_15_tpu_batch_normalization_1_FusedBatchNormV3_nchw_weight_0_to_fp16"), val = tensor<fp16, [512, 1, 3, 3]>(BLOBFILE(path = tensor<string, []>("@model_path/weights/weight.bin"), offset = tensor<uint64, []>(3423936)))];
            tensor<fp16, [512]> efficientnetv2_s_blocks_15_tpu_batch_normalization_1_FusedBatchNormV3_nchw_bias_0_to_fp16 = const()[name = tensor<string, []>("efficientnetv2_s_blocks_15_tpu_batch_normalization_1_FusedBatchNormV3_nchw_bias_0_to_fp16"), val = tensor<fp16, [512]>(BLOBFILE(path = tensor<string, []>("@model_path/weights/weight.bin"), offset = tensor<uint64, []>(3433216)))];
            tensor<fp16, [1, 512, 16, 16]> efficientnetv2_s_blocks_15_tpu_batch_normalization_1_FusedBatchNormV3_nchw_cast = conv(bias = efficientnetv2_s_blocks_15_tpu_batch_normalization_1_FusedBatchNormV3_nchw_bias_0_to_fp16, dilations = efficientnetv2_s_blocks_15_depthwise_conv2d_depthwisex_dilations_0, groups = efficientnetv2_s_blocks_15_depthwise_conv2d_depthwisex_groups_0, pad = efficientnetv2_s_blocks_15_depthwise_conv2d_depthwisex_pad_0, pad_type = efficientnetv2_s_blocks_15_depthwise_conv2d_depthwisex_pad_type_0, strides = efficientnetv2_s_blocks_15_depthwise_conv2d_depthwisex_strides_0, weight = efficientnetv2_s_blocks_15_tpu_batch_normalization_1_FusedBatchNormV3_nchw_weight_0_to_fp16, x = pad_16_cast);
            tensor<fp16, [1, 512, 16, 16]> efficientnetv2_s_blocks_15_mul_3_cast = silu(x = efficientnetv2_s_blocks_15_tpu_batch_normalization_1_FusedBatchNormV3_nchw_cast);
            tensor<bool, []> efficientnetv2_s_blocks_15_se_Mean_keep_dims_0 = const()[name = tensor<string, []>("efficientnetv2_s_blocks_15_se_Mean_keep_dims_0"), val = tensor<bool, []>(true)];
            tensor<int32, [2]> const_15 = const()[name = tensor<string, []>("const_15"), val = tensor<int32, [2]>([2, 3])];
            tensor<fp16, [1, 512, 1, 1]> efficientnetv2_s_blocks_15_se_Mean_cast = reduce_mean(axes = const_15, keep_dims = efficientnetv2_s_blocks_15_se_Mean_keep_dims_0, x = efficientnetv2_s_blocks_15_mul_3_cast);
            tensor<string, []> efficientnetv2_s_blocks_15_se_conv2d_Conv2Dx_pad_type_0 = const()[name = tensor<string, []>("efficientnetv2_s_blocks_15_se_conv2d_Conv2Dx_pad_type_0"), val = tensor<string, []>("same")];
            tensor<int32, [2]> efficientnetv2_s_blocks_15_se_conv2d_Conv2Dx_strides_0 = const()[name = tensor<string, []>("efficientnetv2_s_blocks_15_se_conv2d_Conv2Dx_strides_0"), val = tensor<int32, [2]>([1, 1])];
            tensor<int32, [2]> efficientnetv2_s_blocks_15_se_conv2d_Conv2Dx_dilations_0 = const()[name = tensor<string, []>("efficientnetv2_s_blocks_15_se_conv2d_Conv2Dx_dilations_0"), val = tensor<int32, [2]>([1, 1])];
            tensor<int32, []> efficientnetv2_s_blocks_15_se_conv2d_Conv2Dx_groups_0 = const()[name = tensor<string, []>("efficientnetv2_s_blocks_15_se_conv2d_Conv2Dx_groups_0"), val = tensor<int32, []>(1)];
            tensor<int32, [4]> efficientnetv2_s_blocks_15_se_conv2d_Conv2Dx_pad_0 = const()[name = tensor<string, []>("efficientnetv2_s_blocks_15_se_conv2d_Conv2Dx_pad_0"), val = tensor<int32, [4]>([0, 0, 0, 0])];
            tensor<fp16, [32, 512, 1, 1]> transpose_128_to_fp16 = const()[name = tensor<string, []>("transpose_128_to_fp16"), val = tensor<fp16, [32, 512, 1, 1]>(BLOBFILE(path = tensor<string, []>("@model_path/weights/weight.bin"), offset = tensor<uint64, []>(3434304)))];
            tensor<fp16, [32]> const_100_to_fp16 = const()[name = tensor<string, []>("const_100_to_fp16"), val = tensor<fp16, [32]>(BLOBFILE(path = tensor<string, []>("@model_path/weights/weight.bin"), offset = tensor<uint64, []>(3467136)))];
            tensor<fp16, [1, 32, 1, 1]> efficientnetv2_s_blocks_15_se_conv2d_BiasAdd_cast = conv(bias = const_100_to_fp16, dilations = efficientnetv2_s_blocks_15_se_conv2d_Conv2Dx_dilations_0, groups = efficientnetv2_s_blocks_15_se_conv2d_Conv2Dx_groups_0, pad = efficientnetv2_s_blocks_15_se_conv2d_Conv2Dx_pad_0, pad_type = efficientnetv2_s_blocks_15_se_conv2d_Conv2Dx_pad_type_0, strides = efficientnetv2_s_blocks_15_se_conv2d_Conv2Dx_strides_0, weight = transpose_128_to_fp16, x = efficientnetv2_s_blocks_15_se_Mean_cast);
            tensor<fp16, [1, 32, 1, 1]> efficientnetv2_s_blocks_15_se_mul_1_cast = silu(x = efficientnetv2_s_blocks_15_se_conv2d_BiasAdd_cast);
            tensor<string, []> efficientnetv2_s_blocks_15_se_conv2d_1_Conv2Dx_pad_type_0 = const()[name = tensor<string, []>("efficientnetv2_s_blocks_15_se_conv2d_1_Conv2Dx_pad_type_0"), val = tensor<string, []>("same")];
            tensor<int32, [2]> efficientnetv2_s_blocks_15_se_conv2d_1_Conv2Dx_strides_0 = const()[name = tensor<string, []>("efficientnetv2_s_blocks_15_se_conv2d_1_Conv2Dx_strides_0"), val = tensor<int32, [2]>([1, 1])];
            tensor<int32, [2]> efficientnetv2_s_blocks_15_se_conv2d_1_Conv2Dx_dilations_0 = const()[name = tensor<string, []>("efficientnetv2_s_blocks_15_se_conv2d_1_Conv2Dx_dilations_0"), val = tensor<int32, [2]>([1, 1])];
            tensor<int32, []> efficientnetv2_s_blocks_15_se_conv2d_1_Conv2Dx_groups_0 = const()[name = tensor<string, []>("efficientnetv2_s_blocks_15_se_conv2d_1_Conv2Dx_groups_0"), val = tensor<int32, []>(1)];
            tensor<int32, [4]> efficientnetv2_s_blocks_15_se_conv2d_1_Conv2Dx_pad_0 = const()[name = tensor<string, []>("efficientnetv2_s_blocks_15_se_conv2d_1_Conv2Dx_pad_0"), val = tensor<int32, [4]>([0, 0, 0, 0])];
            tensor<fp16, [512, 32, 1, 1]> transpose_130_to_fp16 = const()[name = tensor<string, []>("transpose_130_to_fp16"), val = tensor<fp16, [512, 32, 1, 1]>(BLOBFILE(path = tensor<string, []>("@model_path/weights/weight.bin"), offset = tensor<uint64, []>(3467264)))];
            tensor<fp16, [512]> const_101_to_fp16 = const()[name = tensor<string, []>("const_101_to_fp16"), val = tensor<fp16, [512]>(BLOBFILE(path = tensor<string, []>("@model_path/weights/weight.bin"), offset = tensor<uint64, []>(3500096)))];
            tensor<fp16, [1, 512, 1, 1]> efficientnetv2_s_blocks_15_se_conv2d_1_BiasAdd_cast = conv(bias = const_101_to_fp16, dilations = efficientnetv2_s_blocks_15_se_conv2d_1_Conv2Dx_dilations_0, groups = efficientnetv2_s_blocks_15_se_conv2d_1_Conv2Dx_groups_0, pad = efficientnetv2_s_blocks_15_se_conv2d_1_Conv2Dx_pad_0, pad_type = efficientnetv2_s_blocks_15_se_conv2d_1_Conv2Dx_pad_type_0, strides = efficientnetv2_s_blocks_15_se_conv2d_1_Conv2Dx_strides_0, weight = transpose_130_to_fp16, x = efficientnetv2_s_blocks_15_se_mul_1_cast);
            tensor<fp16, [1, 512, 1, 1]> efficientnetv2_s_blocks_15_se_Sigmoid_1_cast = sigmoid(x = efficientnetv2_s_blocks_15_se_conv2d_1_BiasAdd_cast);
            tensor<fp16, [1, 512, 16, 16]> efficientnetv2_s_blocks_15_se_mul_2_cast = mul(x = efficientnetv2_s_blocks_15_se_Sigmoid_1_cast, y = efficientnetv2_s_blocks_15_mul_3_cast);
            tensor<string, []> efficientnetv2_s_blocks_15_conv2d_1_Conv2Dx_pad_type_0 = const()[name = tensor<string, []>("efficientnetv2_s_blocks_15_conv2d_1_Conv2Dx_pad_type_0"), val = tensor<string, []>("same")];
            tensor<int32, [2]> efficientnetv2_s_blocks_15_conv2d_1_Conv2Dx_strides_0 = const()[name = tensor<string, []>("efficientnetv2_s_blocks_15_conv2d_1_Conv2Dx_strides_0"), val = tensor<int32, [2]>([1, 1])];
            tensor<int32, [2]> efficientnetv2_s_blocks_15_conv2d_1_Conv2Dx_dilations_0 = const()[name = tensor<string, []>("efficientnetv2_s_blocks_15_conv2d_1_Conv2Dx_dilations_0"), val = tensor<int32, [2]>([1, 1])];
            tensor<int32, []> efficientnetv2_s_blocks_15_conv2d_1_Conv2Dx_groups_0 = const()[name = tensor<string, []>("efficientnetv2_s_blocks_15_conv2d_1_Conv2Dx_groups_0"), val = tensor<int32, []>(1)];
            tensor<int32, [4]> efficientnetv2_s_blocks_15_conv2d_1_Conv2Dx_pad_0 = const()[name = tensor<string, []>("efficientnetv2_s_blocks_15_conv2d_1_Conv2Dx_pad_0"), val = tensor<int32, [4]>([0, 0, 0, 0])];
            tensor<fp16, [128, 512, 1, 1]> efficientnetv2_s_blocks_15_tpu_batch_normalization_2_FusedBatchNormV3_nchw_weight_0_to_fp16 = const()[name = tensor<string, []>("efficientnetv2_s_blocks_15_tpu_batch_normalization_2_FusedBatchNormV3_nchw_weight_0_to_fp16"), val = tensor<fp16, [128, 512, 1, 1]>(BLOBFILE(path = tensor<string, []>("@model_path/weights/weight.bin"), offset = tensor<uint64, []>(3501184)))];
            tensor<fp16, [128]> efficientnetv2_s_blocks_15_tpu_batch_normalization_2_FusedBatchNormV3_nchw_bias_0_to_fp16 = const()[name = tensor<string, []>("efficientnetv2_s_blocks_15_tpu_batch_normalization_2_FusedBatchNormV3_nchw_bias_0_to_fp16"), val = tensor<fp16, [128]>(BLOBFILE(path = tensor<string, []>("@model_path/weights/weight.bin"), offset = tensor<uint64, []>(3632320)))];
            tensor<fp16, [1, 128, 16, 16]> efficientnetv2_s_blocks_15_tpu_batch_normalization_2_FusedBatchNormV3_nchw_cast = conv(bias = efficientnetv2_s_blocks_15_tpu_batch_normalization_2_FusedBatchNormV3_nchw_bias_0_to_fp16, dilations = efficientnetv2_s_blocks_15_conv2d_1_Conv2Dx_dilations_0, groups = efficientnetv2_s_blocks_15_conv2d_1_Conv2Dx_groups_0, pad = efficientnetv2_s_blocks_15_conv2d_1_Conv2Dx_pad_0, pad_type = efficientnetv2_s_blocks_15_conv2d_1_Conv2Dx_pad_type_0, strides = efficientnetv2_s_blocks_15_conv2d_1_Conv2Dx_strides_0, weight = efficientnetv2_s_blocks_15_tpu_batch_normalization_2_FusedBatchNormV3_nchw_weight_0_to_fp16, x = efficientnetv2_s_blocks_15_se_mul_2_cast);
            tensor<fp16, [1, 128, 16, 16]> efficientnetv2_s_blocks_15_Add_cast = add(x = efficientnetv2_s_blocks_15_tpu_batch_normalization_2_FusedBatchNormV3_nchw_cast, y = efficientnetv2_s_blocks_14_Add_cast);
            tensor<string, []> efficientnetv2_s_blocks_16_conv2d_Conv2Dx_pad_type_0 = const()[name = tensor<string, []>("efficientnetv2_s_blocks_16_conv2d_Conv2Dx_pad_type_0"), val = tensor<string, []>("same")];
            tensor<int32, [2]> efficientnetv2_s_blocks_16_conv2d_Conv2Dx_strides_0 = const()[name = tensor<string, []>("efficientnetv2_s_blocks_16_conv2d_Conv2Dx_strides_0"), val = tensor<int32, [2]>([1, 1])];
            tensor<int32, [2]> efficientnetv2_s_blocks_16_conv2d_Conv2Dx_dilations_0 = const()[name = tensor<string, []>("efficientnetv2_s_blocks_16_conv2d_Conv2Dx_dilations_0"), val = tensor<int32, [2]>([1, 1])];
            tensor<int32, []> efficientnetv2_s_blocks_16_conv2d_Conv2Dx_groups_0 = const()[name = tensor<string, []>("efficientnetv2_s_blocks_16_conv2d_Conv2Dx_groups_0"), val = tensor<int32, []>(1)];
            tensor<int32, [4]> efficientnetv2_s_blocks_16_conv2d_Conv2Dx_pad_0 = const()[name = tensor<string, []>("efficientnetv2_s_blocks_16_conv2d_Conv2Dx_pad_0"), val = tensor<int32, [4]>([0, 0, 0, 0])];
            tensor<fp16, [768, 128, 1, 1]> efficientnetv2_s_blocks_16_tpu_batch_normalization_FusedBatchNormV3_nchw_weight_0_to_fp16 = const()[name = tensor<string, []>("efficientnetv2_s_blocks_16_tpu_batch_normalization_FusedBatchNormV3_nchw_weight_0_to_fp16"), val = tensor<fp16, [768, 128, 1, 1]>(BLOBFILE(path = tensor<string, []>("@model_path/weights/weight.bin"), offset = tensor<uint64, []>(3632640)))];
            tensor<fp16, [768]> efficientnetv2_s_blocks_16_tpu_batch_normalization_FusedBatchNormV3_nchw_bias_0_to_fp16 = const()[name = tensor<string, []>("efficientnetv2_s_blocks_16_tpu_batch_normalization_FusedBatchNormV3_nchw_bias_0_to_fp16"), val = tensor<fp16, [768]>(BLOBFILE(path = tensor<string, []>("@model_path/weights/weight.bin"), offset = tensor<uint64, []>(3829312)))];
            tensor<fp16, [1, 768, 16, 16]> efficientnetv2_s_blocks_16_tpu_batch_normalization_FusedBatchNormV3_nchw_cast = conv(bias = efficientnetv2_s_blocks_16_tpu_batch_normalization_FusedBatchNormV3_nchw_bias_0_to_fp16, dilations = efficientnetv2_s_blocks_16_conv2d_Conv2Dx_dilations_0, groups = efficientnetv2_s_blocks_16_conv2d_Conv2Dx_groups_0, pad = efficientnetv2_s_blocks_16_conv2d_Conv2Dx_pad_0, pad_type = efficientnetv2_s_blocks_16_conv2d_Conv2Dx_pad_type_0, strides = efficientnetv2_s_blocks_16_conv2d_Conv2Dx_strides_0, weight = efficientnetv2_s_blocks_16_tpu_batch_normalization_FusedBatchNormV3_nchw_weight_0_to_fp16, x = efficientnetv2_s_blocks_15_Add_cast);
            tensor<fp16, [1, 768, 16, 16]> efficientnetv2_s_blocks_16_mul_1_cast = silu(x = efficientnetv2_s_blocks_16_tpu_batch_normalization_FusedBatchNormV3_nchw_cast);
            tensor<string, []> efficientnetv2_s_blocks_16_Pad_mode_0 = const()[name = tensor<string, []>("efficientnetv2_s_blocks_16_Pad_mode_0"), val = tensor<string, []>("constant")];
            tensor<int32, [8]> pad_17_pad_0 = const()[name = tensor<string, []>("pad_17_pad_0"), val = tensor<int32, [8]>([0, 0, 0, 0, 1, 1, 1, 1])];
            tensor<fp16, []> efficientnetv2_s_blocks_16_Pad_constant_val_0_to_fp16 = const()[name = tensor<string, []>("efficientnetv2_s_blocks_16_Pad_constant_val_0_to_fp16"), val = tensor<fp16, []>(0x0p+0)];
            tensor<fp16, [1, 768, 18, 18]> pad_17_cast = pad(constant_val = efficientnetv2_s_blocks_16_Pad_constant_val_0_to_fp16, mode = efficientnetv2_s_blocks_16_Pad_mode_0, pad = pad_17_pad_0, x = efficientnetv2_s_blocks_16_mul_1_cast);
…
_se_conv2d_1_Conv2Dx_pad_type_0, strides = efficientnetv2_s_blocks_36_se_conv2d_1_Conv2Dx_strides_0, weight = transpose_403_to_fp16, x = efficientnetv2_s_blocks_36_se_mul_1_cast);
            tensor<fp16, [1, 1536, 1, 1]> efficientnetv2_s_blocks_36_se_Sigmoid_1_cast = sigmoid(x = efficientnetv2_s_blocks_36_se_conv2d_1_BiasAdd_cast);
            tensor<fp16, [1, 1536, 8, 8]> efficientnetv2_s_blocks_36_se_mul_2_cast = mul(x = efficientnetv2_s_blocks_36_se_Sigmoid_1_cast, y = efficientnetv2_s_blocks_36_mul_3_cast);
            tensor<string, []> efficientnetv2_s_blocks_36_conv2d_1_Conv2Dx_pad_type_0 = const()[name = tensor<string, []>("efficientnetv2_s_blocks_36_conv2d_1_Conv2Dx_pad_type_0"), val = tensor<string, []>("same")];
            tensor<int32, [2]> efficientnetv2_s_blocks_36_conv2d_1_Conv2Dx_strides_0 = const()[name = tensor<string, []>("efficientnetv2_s_blocks_36_conv2d_1_Conv2Dx_strides_0"), val = tensor<int32, [2]>([1, 1])];
            tensor<int32, [2]> efficientnetv2_s_blocks_36_conv2d_1_Conv2Dx_dilations_0 = const()[name = tensor<string, []>("efficientnetv2_s_blocks_36_conv2d_1_Conv2Dx_dilations_0"), val = tensor<int32, [2]>([1, 1])];
            tensor<int32, []> efficientnetv2_s_blocks_36_conv2d_1_Conv2Dx_groups_0 = const()[name = tensor<string, []>("efficientnetv2_s_blocks_36_conv2d_1_Conv2Dx_groups_0"), val = tensor<int32, []>(1)];
            tensor<int32, [4]> efficientnetv2_s_blocks_36_conv2d_1_Conv2Dx_pad_0 = const()[name = tensor<string, []>("efficientnetv2_s_blocks_36_conv2d_1_Conv2Dx_pad_0"), val = tensor<int32, [4]>([0, 0, 0, 0])];
            tensor<fp16, [256, 1536, 1, 1]> efficientnetv2_s_blocks_36_tpu_batch_normalization_2_FusedBatchNormV3_nchw_weight_0_to_fp16 = const()[name = tensor<string, []>("efficientnetv2_s_blocks_36_tpu_batch_normalization_2_FusedBatchNormV3_nchw_weight_0_to_fp16"), val = tensor<fp16, [256, 1536, 1, 1]>(BLOBFILE(path = tensor<string, []>("@model_path/weights/weight.bin"), offset = tensor<uint64, []>(32765824)))];
            tensor<fp16, [256]> efficientnetv2_s_blocks_36_tpu_batch_normalization_2_FusedBatchNormV3_nchw_bias_0_to_fp16 = const()[name = tensor<string, []>("efficientnetv2_s_blocks_36_tpu_batch_normalization_2_FusedBatchNormV3_nchw_bias_0_to_fp16"), val = tensor<fp16, [256]>(BLOBFILE(path = tensor<string, []>("@model_path/weights/weight.bin"), offset = tensor<uint64, []>(33552320)))];
            tensor<fp16, [1, 256, 8, 8]> efficientnetv2_s_blocks_36_tpu_batch_normalization_2_FusedBatchNormV3_nchw_cast = conv(bias = efficientnetv2_s_blocks_36_tpu_batch_normalization_2_FusedBatchNormV3_nchw_bias_0_to_fp16, dilations = efficientnetv2_s_blocks_36_conv2d_1_Conv2Dx_dilations_0, groups = efficientnetv2_s_blocks_36_conv2d_1_Conv2Dx_groups_0, pad = efficientnetv2_s_blocks_36_conv2d_1_Conv2Dx_pad_0, pad_type = efficientnetv2_s_blocks_36_conv2d_1_Conv2Dx_pad_type_0, strides = efficientnetv2_s_blocks_36_conv2d_1_Conv2Dx_strides_0, weight = efficientnetv2_s_blocks_36_tpu_batch_normalization_2_FusedBatchNormV3_nchw_weight_0_to_fp16, x = efficientnetv2_s_blocks_36_se_mul_2_cast);
            tensor<fp16, [1, 256, 8, 8]> efficientnetv2_s_blocks_36_Add_cast = add(x = efficientnetv2_s_blocks_36_tpu_batch_normalization_2_FusedBatchNormV3_nchw_cast, y = efficientnetv2_s_blocks_35_Add_cast);
            tensor<string, []> efficientnetv2_s_blocks_37_conv2d_Conv2Dx_pad_type_0 = const()[name = tensor<string, []>("efficientnetv2_s_blocks_37_conv2d_Conv2Dx_pad_type_0"), val = tensor<string, []>("same")];
            tensor<int32, [2]> efficientnetv2_s_blocks_37_conv2d_Conv2Dx_strides_0 = const()[name = tensor<string, []>("efficientnetv2_s_blocks_37_conv2d_Conv2Dx_strides_0"), val = tensor<int32, [2]>([1, 1])];
            tensor<int32, [2]> efficientnetv2_s_blocks_37_conv2d_Conv2Dx_dilations_0 = const()[name = tensor<string, []>("efficientnetv2_s_blocks_37_conv2d_Conv2Dx_dilations_0"), val = tensor<int32, [2]>([1, 1])];
            tensor<int32, []> efficientnetv2_s_blocks_37_conv2d_Conv2Dx_groups_0 = const()[name = tensor<string, []>("efficientnetv2_s_blocks_37_conv2d_Conv2Dx_groups_0"), val = tensor<int32, []>(1)];
            tensor<int32, [4]> efficientnetv2_s_blocks_37_conv2d_Conv2Dx_pad_0 = const()[name = tensor<string, []>("efficientnetv2_s_blocks_37_conv2d_Conv2Dx_pad_0"), val = tensor<int32, [4]>([0, 0, 0, 0])];
            tensor<fp16, [1536, 256, 1, 1]> efficientnetv2_s_blocks_37_tpu_batch_normalization_FusedBatchNormV3_nchw_weight_0_to_fp16 = const()[name = tensor<string, []>("efficientnetv2_s_blocks_37_tpu_batch_normalization_FusedBatchNormV3_nchw_weight_0_to_fp16"), val = tensor<fp16, [1536, 256, 1, 1]>(BLOBFILE(path = tensor<string, []>("@model_path/weights/weight.bin"), offset = tensor<uint64, []>(33552896)))];
            tensor<fp16, [1536]> efficientnetv2_s_blocks_37_tpu_batch_normalization_FusedBatchNormV3_nchw_bias_0_to_fp16 = const()[name = tensor<string, []>("efficientnetv2_s_blocks_37_tpu_batch_normalization_FusedBatchNormV3_nchw_bias_0_to_fp16"), val = tensor<fp16, [1536]>(BLOBFILE(path = tensor<string, []>("@model_path/weights/weight.bin"), offset = tensor<uint64, []>(34339392)))];
            tensor<fp16, [1, 1536, 8, 8]> efficientnetv2_s_blocks_37_tpu_batch_normalization_FusedBatchNormV3_nchw_cast = conv(bias = efficientnetv2_s_blocks_37_tpu_batch_normalization_FusedBatchNormV3_nchw_bias_0_to_fp16, dilations = efficientnetv2_s_blocks_37_conv2d_Conv2Dx_dilations_0, groups = efficientnetv2_s_blocks_37_conv2d_Conv2Dx_groups_0, pad = efficientnetv2_s_blocks_37_conv2d_Conv2Dx_pad_0, pad_type = efficientnetv2_s_blocks_37_conv2d_Conv2Dx_pad_type_0, strides = efficientnetv2_s_blocks_37_conv2d_Conv2Dx_strides_0, weight = efficientnetv2_s_blocks_37_tpu_batch_normalization_FusedBatchNormV3_nchw_weight_0_to_fp16, x = efficientnetv2_s_blocks_36_Add_cast);
            tensor<fp16, [1, 1536, 8, 8]> efficientnetv2_s_blocks_37_mul_1_cast = silu(x = efficientnetv2_s_blocks_37_tpu_batch_normalization_FusedBatchNormV3_nchw_cast);
            tensor<string, []> efficientnetv2_s_blocks_37_Pad_mode_0 = const()[name = tensor<string, []>("efficientnetv2_s_blocks_37_Pad_mode_0"), val = tensor<string, []>("constant")];
            tensor<int32, [8]> pad_38_pad_0 = const()[name = tensor<string, []>("pad_38_pad_0"), val = tensor<int32, [8]>([0, 0, 0, 0, 1, 1, 1, 1])];
            tensor<fp16, []> efficientnetv2_s_blocks_37_Pad_constant_val_0_to_fp16 = const()[name = tensor<string, []>("efficientnetv2_s_blocks_37_Pad_constant_val_0_to_fp16"), val = tensor<fp16, []>(0x0p+0)];
            tensor<fp16, [1, 1536, 10, 10]> pad_38_cast = pad(constant_val = efficientnetv2_s_blocks_37_Pad_constant_val_0_to_fp16, mode = efficientnetv2_s_blocks_37_Pad_mode_0, pad = pad_38_pad_0, x = efficientnetv2_s_blocks_37_mul_1_cast);
            tensor<string, []> efficientnetv2_s_blocks_37_depthwise_conv2d_depthwisex_pad_type_0 = const()[name = tensor<string, []>("efficientnetv2_s_blocks_37_depthwise_conv2d_depthwisex_pad_type_0"), val = tensor<string, []>("valid")];
            tensor<int32, [2]> efficientnetv2_s_blocks_37_depthwise_conv2d_depthwisex_strides_0 = const()[name = tensor<string, []>("efficientnetv2_s_blocks_37_depthwise_conv2d_depthwisex_strides_0"), val = tensor<int32, [2]>([1, 1])];
            tensor<int32, [2]> efficientnetv2_s_blocks_37_depthwise_conv2d_depthwisex_dilations_0 = const()[name = tensor<string, []>("efficientnetv2_s_blocks_37_depthwise_conv2d_depthwisex_dilations_0"), val = tensor<int32, [2]>([1, 1])];
            tensor<int32, []> efficientnetv2_s_blocks_37_depthwise_conv2d_depthwisex_groups_0 = const()[name = tensor<string, []>("efficientnetv2_s_blocks_37_depthwise_conv2d_depthwisex_groups_0"), val = tensor<int32, []>(1536)];
            tensor<int32, [4]> efficientnetv2_s_blocks_37_depthwise_conv2d_depthwisex_pad_0 = const()[name = tensor<string, []>("efficientnetv2_s_blocks_37_depthwise_conv2d_depthwisex_pad_0"), val = tensor<int32, [4]>([0, 0, 0, 0])];
            tensor<fp16, [1536, 1, 3, 3]> efficientnetv2_s_blocks_37_tpu_batch_normalization_1_FusedBatchNormV3_nchw_weight_0_to_fp16 = const()[name = tensor<string, []>("efficientnetv2_s_blocks_37_tpu_batch_normalization_1_FusedBatchNormV3_nchw_weight_0_to_fp16"), val = tensor<fp16, [1536, 1, 3, 3]>(BLOBFILE(path = tensor<string, []>("@model_path/weights/weight.bin"), offset = tensor<uint64, []>(34342528)))];
            tensor<fp16, [1536]> efficientnetv2_s_blocks_37_tpu_batch_normalization_1_FusedBatchNormV3_nchw_bias_0_to_fp16 = const()[name = tensor<string, []>("efficientnetv2_s_blocks_37_tpu_batch_normalization_1_FusedBatchNormV3_nchw_bias_0_to_fp16"), val = tensor<fp16, [1536]>(BLOBFILE(path = tensor<string, []>("@model_path/weights/weight.bin"), offset = tensor<uint64, []>(34370240)))];
            tensor<fp16, [1, 1536, 8, 8]> efficientnetv2_s_blocks_37_tpu_batch_normalization_1_FusedBatchNormV3_nchw_cast = conv(bias = efficientnetv2_s_blocks_37_tpu_batch_normalization_1_FusedBatchNormV3_nchw_bias_0_to_fp16, dilations = efficientnetv2_s_blocks_37_depthwise_conv2d_depthwisex_dilations_0, groups = efficientnetv2_s_blocks_37_depthwise_conv2d_depthwisex_groups_0, pad = efficientnetv2_s_blocks_37_depthwise_conv2d_depthwisex_pad_0, pad_type = efficientnetv2_s_blocks_37_depthwise_conv2d_depthwisex_pad_type_0, strides = efficientnetv2_s_blocks_37_depthwise_conv2d_depthwisex_strides_0, weight = efficientnetv2_s_blocks_37_tpu_batch_normalization_1_FusedBatchNormV3_nchw_weight_0_to_fp16, x = pad_38_cast);
            tensor<fp16, [1, 1536, 8, 8]> efficientnetv2_s_blocks_37_mul_3_cast = silu(x = efficientnetv2_s_blocks_37_tpu_batch_normalization_1_FusedBatchNormV3_nchw_cast);
            tensor<bool, []> efficientnetv2_s_blocks_37_se_Mean_keep_dims_0 = const()[name = tensor<string, []>("efficientnetv2_s_blocks_37_se_Mean_keep_dims_0"), val = tensor<bool, []>(true)];
            tensor<int32, [2]> const_81 = const()[name = tensor<string, []>("const_81"), val = tensor<int32, [2]>([2, 3])];
            tensor<fp16, [1, 1536, 1, 1]> efficientnetv2_s_blocks_37_se_Mean_cast = reduce_mean(axes = const_81, keep_dims = efficientnetv2_s_blocks_37_se_Mean_keep_dims_0, x = efficientnetv2_s_blocks_37_mul_3_cast);
            tensor<string, []> efficientnetv2_s_blocks_37_se_conv2d_Conv2Dx_pad_type_0 = const()[name = tensor<string, []>("efficientnetv2_s_blocks_37_se_conv2d_Conv2Dx_pad_type_0"), val = tensor<string, []>("same")];
            tensor<int32, [2]> efficientnetv2_s_blocks_37_se_conv2d_Conv2Dx_strides_0 = const()[name = tensor<string, []>("efficientnetv2_s_blocks_37_se_conv2d_Conv2Dx_strides_0"), val = tensor<int32, [2]>([1, 1])];
            tensor<int32, [2]> efficientnetv2_s_blocks_37_se_conv2d_Conv2Dx_dilations_0 = const()[name = tensor<string, []>("efficientnetv2_s_blocks_37_se_conv2d_Conv2Dx_dilations_0"), val = tensor<int32, [2]>([1, 1])];
            tensor<int32, []> efficientnetv2_s_blocks_37_se_conv2d_Conv2Dx_groups_0 = const()[name = tensor<string, []>("efficientnetv2_s_blocks_37_se_conv2d_Conv2Dx_groups_0"), val = tensor<int32, []>(1)];
            tensor<int32, [4]> efficientnetv2_s_blocks_37_se_conv2d_Conv2Dx_pad_0 = const()[name = tensor<string, []>("efficientnetv2_s_blocks_37_se_conv2d_Conv2Dx_pad_0"), val = tensor<int32, [4]>([0, 0, 0, 0])];
            tensor<fp16, [64, 1536, 1, 1]> transpose_414_to_fp16 = const()[name = tensor<string, []>("transpose_414_to_fp16"), val = tensor<fp16, [64, 1536, 1, 1]>(BLOBFILE(path = tensor<string, []>("@model_path/weights/weight.bin"), offset = tensor<uint64, []>(34373376)))];
            tensor<fp16, [64]> const_144_to_fp16 = const()[name = tensor<string, []>("const_144_to_fp16"), val = tensor<fp16, [64]>(BLOBFILE(path = tensor<string, []>("@model_path/weights/weight.bin"), offset = tensor<uint64, []>(34570048)))];
            tensor<fp16, [1, 64, 1, 1]> efficientnetv2_s_blocks_37_se_conv2d_BiasAdd_cast = conv(bias = const_144_to_fp16, dilations = efficientnetv2_s_blocks_37_se_conv2d_Conv2Dx_dilations_0, groups = efficientnetv2_s_blocks_37_se_conv2d_Conv2Dx_groups_0, pad = efficientnetv2_s_blocks_37_se_conv2d_Conv2Dx_pad_0, pad_type = efficientnetv2_s_blocks_37_se_conv2d_Conv2Dx_pad_type_0, strides = efficientnetv2_s_blocks_37_se_conv2d_Conv2Dx_strides_0, weight = transpose_414_to_fp16, x = efficientnetv2_s_blocks_37_se_Mean_cast);
            tensor<fp16, [1, 64, 1, 1]> efficientnetv2_s_blocks_37_se_mul_1_cast = silu(x = efficientnetv2_s_blocks_37_se_conv2d_BiasAdd_cast);
            tensor<string, []> efficientnetv2_s_blocks_37_se_conv2d_1_Conv2Dx_pad_type_0 = const()[name = tensor<string, []>("efficientnetv2_s_blocks_37_se_conv2d_1_Conv2Dx_pad_type_0"), val = tensor<string, []>("same")];
            tensor<int32, [2]> efficientnetv2_s_blocks_37_se_conv2d_1_Conv2Dx_strides_0 = const()[name = tensor<string, []>("efficientnetv2_s_blocks_37_se_conv2d_1_Conv2Dx_strides_0"), val = tensor<int32, [2]>([1, 1])];
            tensor<int32, [2]> efficientnetv2_s_blocks_37_se_conv2d_1_Conv2Dx_dilations_0 = const()[name = tensor<string, []>("efficientnetv2_s_blocks_37_se_conv2d_1_Conv2Dx_dilations_0"), val = tensor<int32, [2]>([1, 1])];
            tensor<int32, []> efficientnetv2_s_blocks_37_se_conv2d_1_Conv2Dx_groups_0 = const()[name = tensor<string, []>("efficientnetv2_s_blocks_37_se_conv2d_1_Conv2Dx_groups_0"), val = tensor<int32, []>(1)];
            tensor<int32, [4]> efficientnetv2_s_blocks_37_se_conv2d_1_Conv2Dx_pad_0 = const()[name = tensor<string, []>("efficientnetv2_s_blocks_37_se_conv2d_1_Conv2Dx_pad_0"), val = tensor<int32, [4]>([0, 0, 0, 0])];
            tensor<fp16, [1536, 64, 1, 1]> transpose_416_to_fp16 = const()[name = tensor<string, []>("transpose_416_to_fp16"), val = tensor<fp16, [1536, 64, 1, 1]>(BLOBFILE(path = tensor<string, []>("@model_path/weights/weight.bin"), offset = tensor<uint64, []>(34570240)))];
            tensor<fp16, [1536]> const_145_to_fp16 = const()[name = tensor<string, []>("const_145_to_fp16"), val = tensor<fp16, [1536]>(BLOBFILE(path = tensor<string, []>("@model_path/weights/weight.bin"), offset = tensor<uint64, []>(34766912)))];
            tensor<fp16, [1, 1536, 1, 1]> efficientnetv2_s_blocks_37_se_conv2d_1_BiasAdd_cast = conv(bias = const_145_to_fp16, dilations = efficientnetv2_s_blocks_37_se_conv2d_1_Conv2Dx_dilations_0, groups = efficientnetv2_s_blocks_37_se_conv2d_1_Conv2Dx_groups_0, pad = efficientnetv2_s_blocks_37_se_conv2d_1_Conv2Dx_pad_0, pad_type = efficientnetv2_s_blocks_37_se_conv2d_1_Conv2Dx_pad_type_0, strides = efficientnetv2_s_blocks_37_se_conv2d_1_Conv2Dx_strides_0, weight = transpose_416_to_fp16, x = efficientnetv2_s_blocks_37_se_mul_1_cast);
            tensor<fp16, [1, 1536, 1, 1]> efficientnetv2_s_blocks_37_se_Sigmoid_1_cast = sigmoid(x = efficientnetv2_s_blocks_37_se_conv2d_1_BiasAdd_cast);
            tensor<fp16, [1, 1536, 8, 8]> efficientnetv2_s_blocks_37_se_mul_2_cast = mul(x = efficientnetv2_s_blocks_37_se_Sigmoid_1_cast, y = efficientnetv2_s_blocks_37_mul_3_cast);
            tensor<string, []> efficientnetv2_s_blocks_37_conv2d_1_Conv2Dx_pad_type_0 = const()[name = tensor<string, []>("efficientnetv2_s_blocks_37_conv2d_1_Conv2Dx_pad_type_0"), val = tensor<string, []>("same")];
            tensor<int32, [2]> efficientnetv2_s_blocks_37_conv2d_1_Conv2Dx_strides_0 = const()[name = tensor<string, []>("efficientnetv2_s_blocks_37_conv2d_1_Conv2Dx_strides_0"), val = tensor<int32, [2]>([1, 1])];
            tensor<int32, [2]> efficientnetv2_s_blocks_37_conv2d_1_Conv2Dx_dilations_0 = const()[name = tensor<string, []>("efficientnetv2_s_blocks_37_conv2d_1_Conv2Dx_dilations_0"), val = tensor<int32, [2]>([1, 1])];
            tensor<int32, []> efficientnetv2_s_blocks_37_conv2d_1_Conv2Dx_groups_0 = const()[name = tensor<string, []>("efficientnetv2_s_blocks_37_conv2d_1_Conv2Dx_groups_0"), val = tensor<int32, []>(1)];
            tensor<int32, [4]> efficientnetv2_s_blocks_37_conv2d_1_Conv2Dx_pad_0 = const()[name = tensor<string, []>("efficientnetv2_s_blocks_37_conv2d_1_Conv2Dx_pad_0"), val = tensor<int32, [4]>([0, 0, 0, 0])];
            tensor<fp16, [256, 1536, 1, 1]> efficientnetv2_s_blocks_37_tpu_batch_normalization_2_FusedBatchNormV3_nchw_weight_0_to_fp16 = const()[name = tensor<string, []>("efficientnetv2_s_blocks_37_tpu_batch_normalization_2_FusedBatchNormV3_nchw_weight_0_to_fp16"), val = tensor<fp16, [256, 1536, 1, 1]>(BLOBFILE(path = tensor<string, []>("@model_path/weights/weight.bin"), offset = tensor<uint64, []>(34770048)))];
            tensor<fp16, [256]> efficientnetv2_s_blocks_37_tpu_batch_normalization_2_FusedBatchNormV3_nchw_bias_0_to_fp16 = const()[name = tensor<string, []>("efficientnetv2_s_blocks_37_tpu_batch_normalization_2_FusedBatchNormV3_nchw_bias_0_to_fp16"), val = tensor<fp16, [256]>(BLOBFILE(path = tensor<string, []>("@model_path/weights/weight.bin"), offset = tensor<uint64, []>(35556544)))];
            tensor<fp16, [1, 256, 8, 8]> efficientnetv2_s_blocks_37_tpu_batch_normalization_2_FusedBatchNormV3_nchw_cast = conv(bias = efficientnetv2_s_blocks_37_tpu_batch_normalization_2_FusedBatchNormV3_nchw_bias_0_to_fp16, dilations = efficientnetv2_s_blocks_37_conv2d_1_Conv2Dx_dilations_0, groups = efficientnetv2_s_blocks_37_conv2d_1_Conv2Dx_groups_0, pad = efficientnetv2_s_blocks_37_conv2d_1_Conv2Dx_pad_0, pad_type = efficientnetv2_s_blocks_37_conv2d_1_Conv2Dx_pad_type_0, strides = efficientnetv2_s_blocks_37_conv2d_1_Conv2Dx_strides_0, weight = efficientnetv2_s_blocks_37_tpu_batch_normalization_2_FusedBatchNormV3_nchw_weight_0_to_fp16, x = efficientnetv2_s_blocks_37_se_mul_2_cast);
            tensor<fp16, [1, 256, 8, 8]> efficientnetv2_s_blocks_37_Add_cast = add(x = efficientnetv2_s_blocks_37_tpu_batch_normalization_2_FusedBatchNormV3_nchw_cast, y = efficientnetv2_s_blocks_36_Add_cast);
            tensor<string, []> efficientnetv2_s_blocks_38_conv2d_Conv2Dx_pad_type_0 = const()[name = tensor<string, []>("efficientnetv2_s_blocks_38_conv2d_Conv2Dx_pad_type_0"), val = tensor<string, []>("same")];
            tensor<int32, [2]> efficientnetv2_s_blocks_38_conv2d_Conv2Dx_strides_0 = const()[name = tensor<string, []>("efficientnetv2_s_blocks_38_conv2d_Conv2Dx_strides_0"), val = tensor<int32, [2]>([1, 1])];
            tensor<int32, [2]> efficientnetv2_s_blocks_38_conv2d_Conv2Dx_dilations_0 = const()[name = tensor<string, []>("efficientnetv2_s_blocks_38_conv2d_Conv2Dx_dilations_0"), val = tensor<int32, [2]>([1, 1])];
            tensor<int32, []> efficientnetv2_s_blocks_38_conv2d_Conv2Dx_groups_0 = const()[name = tensor<string, []>("efficientnetv2_s_blocks_38_conv2d_Conv2Dx_groups_0"), val = tensor<int32, []>(1)];
            tensor<int32, [4]> efficientnetv2_s_blocks_38_conv2d_Conv2Dx_pad_0 = const()[name = tensor<string, []>("efficientnetv2_s_blocks_38_conv2d_Conv2Dx_pad_0"), val = tensor<int32, [4]>([0, 0, 0, 0])];
            tensor<fp16, [1536, 256, 1, 1]> efficientnetv2_s_blocks_38_tpu_batch_normalization_FusedBatchNormV3_nchw_weight_0_to_fp16 = const()[name = tensor<string, []>("efficientnetv2_s_blocks_38_tpu_batch_normalization_FusedBatchNormV3_nchw_weight_0_to_fp16"), val = tensor<fp16, [1536, 256, 1, 1]>(BLOBFILE(path = tensor<string, []>("@model_path/weights/weight.bin"), offset = tensor<uint64, []>(35557120)))];
            tensor<fp16, [1536]> efficientnetv2_s_blocks_38_tpu_batch_normalization_FusedBatchNormV3_nchw_bias_0_to_fp16 = const()[name = tensor<string, []>("efficientnetv2_s_blocks_38_tpu_batch_normalization_FusedBatchNormV3_nchw_bias_0_to_fp16"), val = tensor<fp16, [1536]>(BLOBFILE(path = tensor<string, []>("@model_path/weights/weight.bin"), offset = tensor<uint64, []>(36343616)))];
            tensor<fp16, [1, 1536, 8, 8]> efficientnetv2_s_blocks_38_tpu_batch_normalization_FusedBatchNormV3_nchw_cast = conv(bias = efficientnetv2_s_blocks_38_tpu_batch_normalization_FusedBatchNormV3_nchw_bias_0_to_fp16, dilations = efficientnetv2_s_blocks_38_conv2d_Conv2Dx_dilations_0, groups = efficientnetv2_s_blocks_38_conv2d_Conv2Dx_groups_0, pad = efficientnetv2_s_blocks_38_conv2d_Conv2Dx_pad_0, pad_type = efficientnetv2_s_blocks_38_conv2d_Conv2Dx_pad_type_0, strides = efficientnetv2_s_blocks_38_conv2d_Conv2Dx_strides_0, weight = efficientnetv2_s_blocks_38_tpu_batch_normalization_FusedBatchNormV3_nchw_weight_0_to_fp16, x = efficientnetv2_s_blocks_37_Add_cast);
            tensor<fp16, [1, 1536, 8, 8]> efficientnetv2_s_blocks_38_mul_1_cast = silu(x = efficientnetv2_s_blocks_38_tpu_batch_normalization_FusedBatchNormV3_nchw_cast);
            tensor<string, []> efficientnetv2_s_blocks_38_Pad_mode_0 = const()[name = tensor<string, []>("efficientnetv2_s_blocks_38_Pad_mode_0"), val = tensor<string, []>("constant")];
            tensor<int32, [8]> pad_39_pad_0 = const()[name = tensor<string, []>("pad_39_pad_0"), val = tensor<int32, [8]>([0, 0, 0, 0, 1, 1, 1, 1])];
            tensor<fp16, []> efficientnetv2_s_blocks_38_Pad_constant_val_0_to_fp16 = const()[name = tensor<string, []>("efficientnetv2_s_blocks_38_Pad_constant_val_0_to_fp16"), val = tensor<fp16, []>(0x0p+0)];
            tensor<fp16, [1, 1536, 10, 10]> pad_39_cast = pad(constant_val = efficientnetv2_s_blocks_38_Pad_constant_val_0_to_fp16, mode = efficientnetv2_s_blocks_38_Pad_mode_0, pad = pad_39_pad_0, x = efficientnetv2_s_blocks_38_mul_1_cast);
            tensor<string, []> efficientnetv2_s_blocks_38_depthwise_conv2d_depthwisex_pad_type_0 = const()[name = tensor<string, []>("efficientnetv2_s_blocks_38_depthwise_conv2d_depthwisex_pad_type_0"), val = tensor<string, []>("valid")];
            tensor<int32, [2]> efficientnetv2_s_blocks_38_depthwise_conv2d_depthwisex_strides_0 = const()[name = tensor<string, []>("efficientnetv2_s_blocks_38_depthwise_conv2d_depthwisex_strides_0"), val = tensor<int32, [2]>([1, 1])];
            tensor<int32, [2]> efficientnetv2_s_blocks_38_depthwise_conv2d_depthwisex_dilations_0 = const()[name = tensor<string, []>("efficientnetv2_s_blocks_38_depthwise_conv2d_depthwisex_dilations_0"), val = tensor<int32, [2]>([1, 1])];
            tensor<int32, []> efficientnetv2_s_blocks_38_depthwise_conv2d_depthwisex_groups_0 = const()[name = tensor<string, []>("efficientnetv2_s_blocks_38_depthwise_conv2d_depthwisex_groups_0"), val = tensor<int32, []>(1536)];
            tensor<int32, [4]> efficientnetv2_s_blocks_38_depthwise_conv2d_depthwisex_pad_0 = const()[name = tensor<string, []>("efficientnetv2_s_blocks_38_depthwise_conv2d_depthwisex_pad_0"), val = tensor<int32, [4]>([0, 0, 0, 0])];
            tensor<fp16, [1536, 1, 3, 3]> efficientnetv2_s_blocks_38_tpu_batch_normalization_1_FusedBatchNormV3_nchw_weight_0_to_fp16 = const()[name = tensor<string, []>("efficientnetv2_s_blocks_38_tpu_batch_normalization_1_FusedBatchNormV3_nchw_weight_0_to_fp16"), val = tensor<fp16, [1536, 1, 3, 3]>(BLOBFILE(path = tensor<string, []>("@model_path/weights/weight.bin"), offset = tensor<uint64, []>(36346752)))];
            tensor<fp16, [1536]> efficientnetv2_s_blocks_38_tpu_batch_normalization_1_FusedBatchNormV3_nchw_bias_0_to_fp16 = const()[name = tensor<string, []>("efficientnetv2_s_blocks_38_tpu_batch_normalization_1_FusedBatchNormV3_nchw_bias_0_to_fp16"), val = tensor<fp16, [1536]>(BLOBFILE(path = tensor<string, []>("@model_path/weights/weight.bin"), offset = tensor<uint64, []>(36374464)))];
            tensor<fp16, [1, 1536, 8, 8]> efficientnetv2_s_blocks_38_tpu_batch_normalization_1_FusedBatchNormV3_nchw_cast = conv(bias = efficientnetv2_s_blocks_38_tpu_batch_normalization_1_FusedBatchNormV3_nchw_bias_0_to_fp16, dilations = efficientnetv2_s_blocks_38_depthwise_conv2d_depthwisex_dilations_0, groups = efficientnetv2_s_blocks_38_depthwise_conv2d_depthwisex_groups_0, pad = efficientnetv2_s_blocks_38_depthwise_conv2d_depthwisex_pad_0, pad_type = efficientnetv2_s_blocks_38_depthwise_conv2d_depthwisex_pad_type_0, strides = efficientnetv2_s_blocks_38_depthwise_conv2d_depthwisex_strides_0, weight = efficientnetv2_s_blocks_38_tpu_batch_normalization_1_FusedBatchNormV3_nchw_weight_0_to_fp16, x = pad_39_cast);
            tensor<fp16, [1, 1536, 8, 8]> efficientnetv2_s_blocks_38_mul_3_cast = silu(x = efficientnetv2_s_blocks_38_tpu_batch_normalization_1_FusedBatchNormV3_nchw_cast);
            tensor<bool, []> efficientnetv2_s_blocks_38_se_Mean_keep_dims_0 = const()[name = tensor<string, []>("efficientnetv2_s_blocks_38_se_Mean_keep_dims_0"), val = tensor<bool, []>(true)];
            tensor<int32, [2]> const_84 = const()[name = tensor<string, []>("const_84"), val = tensor<int32, [2]>([2, 3])];
            tensor<fp16, [1, 1536, 1, 1]> efficientnetv2_s_blocks_38_se_Mean_cast = reduce_mean(axes = const_84, keep_dims = efficientnetv2_s_blocks_38_se_Mean_keep_dims_0, x = efficientnetv2_s_blocks_38_mul_3_cast);
            tensor<string, []> efficientnetv2_s_blocks_38_se_conv2d_Conv2Dx_pad_type_0 = const()[name = tensor<string, []>("efficientnetv2_s_blocks_38_se_conv2d_Conv2Dx_pad_type_0"), val = tensor<string, []>("same")];
            tensor<int32, [2]> efficientnetv2_s_blocks_38_se_conv2d_Conv2Dx_strides_0 = const()[name = tensor<string, []>("efficientnetv2_s_blocks_38_se_conv2d_Conv2Dx_strides_0"), val = tensor<int32, [2]>([1, 1])];
            tensor<int32, [2]> efficientnetv2_s_blocks_38_se_conv2d_Conv2Dx_dilations_0 = const()[name = tensor<string, []>("efficientnetv2_s_blocks_38_se_conv2d_Conv2Dx_dilations_0"), val = tensor<int32, [2]>([1, 1])];
            tensor<int32, []> efficientnetv2_s_blocks_38_se_conv2d_Conv2Dx_groups_0 = const()[name = tensor<string, []>("efficientnetv2_s_blocks_38_se_conv2d_Conv2Dx_groups_0"), val = tensor<int32, []>(1)];
            tensor<int32, [4]> efficientnetv2_s_blocks_38_se_conv2d_Conv2Dx_pad_0 = const()[name = tensor<string, []>("efficientnetv2_s_blocks_38_se_conv2d_Conv2Dx_pad_0"), val = tensor<int32, [4]>([0, 0, 0, 0])];
            tensor<fp16, [64, 1536, 1, 1]> transpose_427_to_fp16 = const()[name = tensor<string, []>("transpose_427_to_fp16"), val = tensor<fp16, [64, 1536, 1, 1]>(BLOBFILE(path = tensor<string, []>("@model_path/weights/weight.bin"), offset = tensor<uint64, []>(36377600)))];
            tensor<fp16, [64]> const_146_to_fp16 = const()[name = tensor<string, []>("const_146_to_fp16"), val = tensor<fp16, [64]>(BLOBFILE(path = tensor<string, []>("@model_path/weights/weight.bin"), offset = tensor<uint64, []>(36574272)))];
            tensor<fp16, [1, 64, 1, 1]> efficientnetv2_s_blocks_38_se_conv2d_BiasAdd_cast = conv(bias = const_146_to_fp16, dilations = efficientnetv2_s_blocks_38_se_conv2d_Conv2Dx_dilations_0, groups = efficientnetv2_s_blocks_38_se_conv2d_Conv2Dx_groups_0, pad = efficientnetv2_s_blocks_38_se_conv2d_Conv2Dx_pad_0, pad_type = efficientnetv2_s_blocks_38_se_conv2d_Conv2Dx_pad_type_0, strides = efficientnetv2_s_blocks_38_se_conv2d_Conv2Dx_strides_0, weight = transpose_427_to_fp16, x = efficientnetv2_s_blocks_38_se_Mean_cast);
            tensor<fp16, [1, 64, 1, 1]> efficientnetv2_s_blocks_38_se_mul_1_cast = silu(x = efficientnetv2_s_blocks_38_se_conv2d_BiasAdd_cast);
            tensor<string, []> efficientnetv2_s_blocks_38_se_conv2d_1_Conv2Dx_pad_type_0 = const()[name = tensor<string, []>("efficientnetv2_s_blocks_38_se_conv2d_1_Conv2Dx_pad_type_0"), val = tensor<string, []>("same")];
            tensor<int32, [2]> efficientnetv2_s_blocks_38_se_conv2d_1_Conv2Dx_strides_0 = const()[name = tensor<string, []>("efficientnetv2_s_blocks_38_se_conv2d_1_Conv2Dx_strides_0"), val = tensor<int32, [2]>([1, 1])];
            tensor<int32, [2]> efficientnetv2_s_blocks_38_se_conv2d_1_Conv2Dx_dilations_0 = const()[name = tensor<string, []>("efficientnetv2_s_blocks_38_se_conv2d_1_Conv2Dx_dilations_0"), val = tensor<int32, [2]>([1, 1])];
            tensor<int32, []> efficientnetv2_s_blocks_38_se_conv2d_1_Conv2Dx_groups_0 = const()[name = tensor<string, []>("efficientnetv2_s_blocks_38_se_conv2d_1_Conv2Dx_groups_0"), val = tensor<int32, []>(1)];
            tensor<int32, [4]> efficientnetv2_s_blocks_38_se_conv2d_1_Conv2Dx_pad_0 = const()[name = tensor<string, []>("efficientnetv2_s_blocks_38_se_conv2d_1_Conv2Dx_pad_0"), val = tensor<int32, [4]>([0, 0, 0, 0])];
            tensor<fp16, [1536, 64, 1, 1]> transpose_429_to_fp16 = const()[name = tensor<string, []>("transpose_429_to_fp16"), val = tensor<fp16, [1536, 64, 1, 1]>(BLOBFILE(path = tensor<string, []>("@model_path/weights/weight.bin"), offset = tensor<uint64, []>(36574464)))];
            tensor<fp16, [1536]> const_147_to_fp16 = const()[name = tensor<string, []>("const_147_to_fp16"), val = tensor<fp16, [1536]>(BLOBFILE(path = tensor<string, []>("@model_path/weights/weight.bin"), offset = tensor<uint64, []>(36771136)))];
            tensor<fp16, [1, 1536, 1, 1]> efficientnetv2_s_blocks_38_se_conv2d_1_BiasAdd_cast = conv(bias = const_147_to_fp16, dilations = efficientnetv2_s_blocks_38_se_conv2d_1_Conv2Dx_dilations_0, groups = efficientnetv2_s_blocks_38_se_conv2d_1_Conv2Dx_groups_0, pad = efficientnetv2_s_blocks_38_se_conv2d_1_Conv2Dx_pad_0, pad_type = efficientnetv2_s_blocks_38_se_conv2d_1_Conv2Dx_pad_type_0, strides = efficientnetv2_s_blocks_38_se_conv2d_1_Conv2Dx_strides_0, weight = transpose_429_to_fp16, x = efficientnetv2_s_blocks_38_se_mul_1_cast);
            tensor<fp16, [1, 1536, 1, 1]> efficientnetv2_s_blocks_38_se_Sigmoid_1_cast = sigmoid(x = efficientnetv2_s_blocks_38_se_conv2d_1_BiasAdd_cast);
            tensor<fp16, [1, 1536, 8, 8]> efficientnetv2_s_blocks_38_se_mul_2_cast = mul(x = efficientnetv2_s_blocks_38_se_Sigmoid_1_cast, y = efficientnetv2_s_blocks_38_mul_3_cast);
            tensor<string, []> efficientnetv2_s_blocks_38_conv2d_1_Conv2Dx_pad_type_0 = const()[name = tensor<string, []>("efficientnetv2_s_blocks_38_conv2d_1_Conv2Dx_pad_type_0"), val = tensor<string, []>("same")];
            tensor<int32, [2]> efficientnetv2_s_blocks_38_conv2d_1_Conv2Dx_strides_0 = const()[name = tensor<string, []>("efficientnetv2_s_blocks_38_conv2d_1_Conv2Dx_strides_0"), val = tensor<int32, [2]>([1, 1])];
            tensor<int32, [2]> efficientnetv2_s_blocks_38_conv2d_1_Conv2Dx_dilations_0 = const()[name = tensor<string, []>("efficientnetv2_s_blocks_38_conv2d_1_Conv2Dx_dilations_0"), val = tensor<int32, [2]>([1, 1])];
            tensor<int32, []> efficientnetv2_s_blocks_38_conv2d_1_Conv2Dx_groups_0 = const()[name = tensor<string, []>("efficientnetv2_s_blocks_38_conv2d_1_Conv2Dx_groups_0"), val = tensor<int32, []>(1)];
            tensor<int32, [4]> efficientnetv2_s_blocks_38_conv2d_1_Conv2Dx_pad_0 = const()[name = tensor<string, []>("efficientnetv2_s_blocks_38_conv2d_1_Conv2Dx_pad_0"), val = tensor<int32, [4]>([0, 0, 0, 0])];
            tensor<fp16, [256, 1536, 1, 1]> efficientnetv2_s_blocks_38_tpu_batch_normalization_2_FusedBatchNormV3_nchw_weight_0_to_fp16 = const()[name = tensor<string, []>("efficientnetv2_s_blocks_38_tpu_batch_normalization_2_FusedBatchNormV3_nchw_weight_0_to_fp16"), val = tensor<fp16, [256, 1536, 1, 1]>(BLOBFILE(path = tensor<string, []>("@model_path/weights/weight.bin"), offset = tensor<uint64, []>(36774272)))];
            tensor<fp16, [256]> efficientnetv2_s_blocks_38_tpu_batch_normalization_2_FusedBatchNormV3_nchw_bias_0_to_fp16 = const()[name = tensor<string, []>("efficientnetv2_s_blocks_38_tpu_batch_normalization_2_FusedBatchNormV3_nchw_bias_0_to_fp16"), val = tensor<fp16, [256]>(BLOBFILE(path = tensor<string, []>("@model_path/weights/weight.bin"), offset = tensor<uint64, []>(37560768)))];
            tensor<fp16, [1, 256, 8, 8]> efficientnetv2_s_blocks_38_tpu_batch_normalization_2_FusedBatchNormV3_nchw_cast = conv(bias = efficientnetv2_s_blocks_38_tpu_batch_normalization_2_FusedBatchNormV3_nchw_bias_0_to_fp16, dilations = efficientnetv2_s_blocks_38_conv2d_1_Conv2Dx_dilations_0, groups = efficientnetv2_s_blocks_38_conv2d_1_Conv2Dx_groups_0, pad = efficientnetv2_s_blocks_38_conv2d_1_Conv2Dx_pad_0, pad_type = efficientnetv2_s_blocks_38_conv2d_1_Conv2Dx_pad_type_0, strides = efficientnetv2_s_blocks_38_conv2d_1_Conv2Dx_strides_0, weight = efficientnetv2_s_blocks_38_tpu_batch_normalization_2_FusedBatchNormV3_nchw_weight_0_to_fp16, x = efficientnetv2_s_blocks_38_se_mul_2_cast);
            tensor<fp16, [1, 256, 8, 8]> efficientnetv2_s_blocks_38_Add_cast = add(x = efficientnetv2_s_blocks_38_tpu_batch_normalization_2_FusedBatchNormV3_nchw_cast, y = efficientnetv2_s_blocks_37_Add_cast);
            tensor<string, []> efficientnetv2_s_blocks_39_conv2d_Conv2Dx_pad_type_0 = const()[name = tensor<string, []>("efficientnetv2_s_blocks_39_conv2d_Conv2Dx_pad_type_0"), val = tensor<string, []>("same")];
            tensor<int32, [2]> efficientnetv2_s_blocks_39_conv2d_Conv2Dx_strides_0 = const()[name = tensor<string, []>("efficientnetv2_s_blocks_39_conv2d_Conv2Dx_strides_0"), val = tensor<int32, [2]>([1, 1])];
            tensor<int32, [2]> efficientnetv2_s_blocks_39_conv2d_Conv2Dx_dilations_0 = const()[name = tensor<string, []>("efficientnetv2_s_blocks_39_conv2d_Conv2Dx_dilations_0"), val = tensor<int32, [2]>([1, 1])];
            tensor<int32, []> efficientnetv2_s_blocks_39_conv2d_Conv2Dx_groups_0 = const()[name = tensor<string, []>("efficientnetv2_s_blocks_39_conv2d_Conv2Dx_groups_0"), val = tensor<int32, []>(1)];
            tensor<int32, [4]> efficientnetv2_s_blocks_39_conv2d_Conv2Dx_pad_0 = const()[name = tensor<string, []>("efficientnetv2_s_blocks_39_conv2d_Conv2Dx_pad_0"), val = tensor<int32, [4]>([0, 0, 0, 0])];
            tensor<fp16, [1536, 256, 1, 1]> efficientnetv2_s_blocks_39_tpu_batch_normalization_FusedBatchNormV3_nchw_weight_0_to_fp16 = const()[name = tensor<string, []>("efficientnetv2_s_blocks_39_tpu_batch_normalization_FusedBatchNormV3_nchw_weight_0_to_fp16"), val = tensor<fp16, [1536, 256, 1, 1]>(BLOBFILE(path = tensor<string, []>("@model_path/weights/weight.bin"), offset = tensor<uint64, []>(37561344)))];
            tensor<fp16, [1536]> efficientnetv2_s_blocks_39_tpu_batch_normalization_FusedBatchNormV3_nchw_bias_0_to_fp16 = const()[name = tensor<string, []>("efficientnetv2_s_blocks_39_tpu_batch_normalization_FusedBatchNormV3_nchw_bias_0_to_fp16"), val = tensor<fp16, [1536]>(BLOBFILE(path = tensor<string, []>("@model_path/weights/weight.bin"), offset = tensor<uint64, []>(38347840)))];
            tensor<fp16, [1, 1536, 8, 8]> efficientnetv2_s_blocks_39_tpu_batch_normalization_FusedBatchNormV3_nchw_cast = conv(bias = efficientnetv2_s_blocks_39_tpu_batch_normalization_FusedBatchNormV3_nchw_bias_0_to_fp16, dilations = efficientnetv2_s_blocks_39_conv2d_Conv2Dx_dilations_0, groups = efficientnetv2_s_blocks_39_conv2d_Conv2Dx_groups_0, pad = efficientnetv2_s_blocks_39_conv2d_Conv2Dx_pad_0, pad_type = efficientnetv2_s_blocks_39_conv2d_Conv2Dx_pad_type_0, strides = efficientnetv2_s_blocks_39_conv2d_Conv2Dx_strides_0, weight = efficientnetv2_s_blocks_39_tpu_batch_normalization_FusedBatchNormV3_nchw_weight_0_to_fp16, x = efficientnetv2_s_blocks_38_Add_cast);
            tensor<fp16, [1, 1536, 8, 8]> efficientnetv2_s_blocks_39_mul_1_cast = silu(x = efficientnetv2_s_blocks_39_tpu_batch_normalization_FusedBatchNormV3_nchw_cast);
            tensor<string, []> efficientnetv2_s_blocks_39_Pad_mode_0 = const()[name = tensor<string, []>("efficientnetv2_s_blocks_39_Pad_mode_0"), val = tensor<string, []>("constant")];
            tensor<int32, [8]> pad_40_pad_0 = const()[name = tensor<string, []>("pad_40_pad_0"), val = tensor<int32, [8]>([0, 0, 0, 0, 1, 1, 1, 1])];
            tensor<fp16, []> efficientnetv2_s_blocks_39_Pad_constant_val_0_to_fp16 = const()[name = tensor<string, []>("efficientnetv2_s_blocks_39_Pad_constant_val_0_to_fp16"), val = tensor<fp16, []>(0x0p+0)];
            tensor<fp16, [1, 1536, 10, 10]> pad_40_cast = pad(constant_val = efficientnetv2_s_blocks_39_Pad_constant_val_0_to_fp16, mode = efficientnetv2_s_blocks_39_Pad_mode_0, pad = pad_40_pad_0, x = efficientnetv2_s_blocks_39_mul_1_cast);
            tensor<string, []> efficientnetv2_s_blocks_39_depthwise_conv2d_depthwisex_pad_type_0 = const()[name = tensor<string, []>("efficientnetv2_s_blocks_39_depthwise_conv2d_depthwisex_pad_type_0"), val = tensor<string, []>("valid")];
            tensor<int32, [2]> efficientnetv2_s_blocks_39_depthwise_conv2d_depthwisex_strides_0 = const()[name = tensor<string, []>("efficientnetv2_s_blocks_39_depthwise_conv2d_depthwisex_strides_0"), val = tensor<int32, [2]>([1, 1])];
            tensor<int32, [2]> efficientnetv2_s_blocks_39_depthwise_conv2d_depthwisex_dilations_0 = const()[name = tensor<string, []>("efficientnetv2_s_blocks_39_depthwise_conv2d_depthwisex_dilations_0"), val = tensor<int32, [2]>([1, 1])];
            tensor<int32, []> efficientnetv2_s_blocks_39_depthwise_conv2d_depthwisex_groups_0 = const()[name = tensor<string, []>("efficientnetv2_s_blocks_39_depthwise_conv2d_depthwisex_groups_0"), val = tensor<int32, []>(1536)];
            tensor<int32, [4]> efficientnetv2_s_blocks_39_depthwise_conv2d_depthwisex_pad_0 = const()[name = tensor<string, []>("efficientnetv2_s_blocks_39_depthwise_conv2d_depthwisex_pad_0"), val = tensor<int32, [4]>([0, 0, 0, 0])];
            tensor<fp16, [1536, 1, 3, 3]> efficientnetv2_s_blocks_39_tpu_batch_normalization_1_FusedBatchNormV3_nchw_weight_0_to_fp16 = const()[name = tensor<string, []>("efficientnetv2_s_blocks_39_tpu_batch_normalization_1_FusedBatchNormV3_nchw_weight_0_to_fp16"), val = tensor<fp16, [1536, 1, 3, 3]>(BLOBFILE(path = tensor<string, []>("@model_path/weights/weight.bin"), offset = tensor<uint64, []>(38350976)))];
            tensor<fp16, [1536]> efficientnetv2_s_blocks_39_tpu_batch_normalization_1_FusedBatchNormV3_nchw_bias_0_to_fp16 = const()[name = tensor<string, []>("efficientnetv2_s_blocks_39_tpu_batch_normalization_1_FusedBatchNormV3_nchw_bias_0_to_fp16"), val = tensor<fp16, [1536]>(BLOBFILE(path = tensor<string, []>("@model_path/weights/weight.bin"), offset = tensor<uint64, []>(38378688)))];
            tensor<fp16, [1, 1536, 8, 8]> efficientnetv2_s_blocks_39_tpu_batch_normalization_1_FusedBatchNormV3_nchw_cast = conv(bias = efficientnetv2_s_blocks_39_tpu_batch_normalization_1_FusedBatchNormV3_nchw_bias_0_to_fp16, dilations = efficientnetv2_s_blocks_39_depthwise_conv2d_depthwisex_dilations_0, groups = efficientnetv2_s_blocks_39_depthwise_conv2d_depthwisex_groups_0, pad = efficientnetv2_s_blocks_39_depthwise_conv2d_depthwisex_pad_0, pad_type = efficientnetv2_s_blocks_39_depthwise_conv2d_depthwisex_pad_type_0, strides = efficientnetv2_s_blocks_39_depthwise_conv2d_depthwisex_strides_0, weight = efficientnetv2_s_blocks_39_tpu_batch_normalization_1_FusedBatchNormV3_nchw_weight_0_to_fp16, x = pad_40_cast);
            tensor<fp16, [1, 1536, 8, 8]> efficientnetv2_s_blocks_39_mul_3_cast = silu(x = efficientnetv2_s_blocks_39_tpu_batch_normalization_1_FusedBatchNormV3_nchw_cast);
            tensor<bool, []> efficientnetv2_s_blocks_39_se_Mean_keep_dims_0 = const()[name = tensor<string, []>("efficientnetv2_s_blocks_39_se_Mean_keep_dims_0"), val = tensor<bool, []>(true)];
            tensor<int32, [2]> const_87 = const()[name = tensor<string, []>("const_87"), val = tensor<int32, [2]>([2, 3])];
            tensor<fp16, [1, 1536, 1, 1]> efficientnetv2_s_blocks_39_se_Mean_cast = reduce_mean(axes = const_87, keep_dims = efficientnetv2_s_blocks_39_se_Mean_keep_dims_0, x = efficientnetv2_s_blocks_39_mul_3_cast);
            tensor<string, []> efficientnetv2_s_blocks_39_se_conv2d_Conv2Dx_pad_type_0 = const()[name = tensor<string, []>("efficientnetv2_s_blocks_39_se_conv2d_Conv2Dx_pad_type_0"), val = tensor<string, []>("same")];
            tensor<int32, [2]> efficientnetv2_s_blocks_39_se_conv2d_Conv2Dx_strides_0 = const()[name = tensor<string, []>("efficientnetv2_s_blocks_39_se_conv2d_Conv2Dx_strides_0"), val = tensor<int32, [2]>([1, 1])];
            tensor<int32, [2]> efficientnetv2_s_blocks_39_se_conv2d_Conv2Dx_dilations_0 = const()[name = tensor<string, []>("efficientnetv2_s_blocks_39_se_conv2d_Conv2Dx_dilations_0"), val = tensor<int32, [2]>([1, 1])];
            tensor<int32, []> efficientnetv2_s_blocks_39_se_conv2d_Conv2Dx_groups_0 = const()[name = tensor<string, []>("efficientnetv2_s_blocks_39_se_conv2d_Conv2Dx_groups_0"), val = tensor<int32, []>(1)];
            tensor<int32, [4]> efficientnetv2_s_blocks_39_se_conv2d_Conv2Dx_pad_0 = const()[name = tensor<string, []>("efficientnetv2_s_blocks_39_se_conv2d_Conv2Dx_pad_0"), val = tensor<int32, [4]>([0, 0, 0, 0])];
            tensor<fp16, [64, 1536, 1, 1]> transpose_440_to_fp16 = const()[name = tensor<string, []>("transpose_440_to_fp16"), val = tensor<fp16, [64, 1536, 1, 1]>(BLOBFILE(path = tensor<string, []>("@model_path/weights/weight.bin"), offset = tensor<uint64, []>(38381824)))];
            tensor<fp16, [64]> const_148_to_fp16 = const()[name = tensor<string, []>("const_148_to_fp16"), val = tensor<fp16, [64]>(BLOBFILE(path = tensor<string, []>("@model_path/weights/weight.bin"), offset = tensor<uint64, []>(38578496)))];
            tensor<fp16, [1, 64, 1, 1]> efficientnetv2_s_blocks_39_se_conv2d_BiasAdd_cast = conv(bias = const_148_to_fp16, dilations = efficientnetv2_s_blocks_39_se_conv2d_Conv2Dx_dilations_0, groups = efficientnetv2_s_blocks_39_se_conv2d_Conv2Dx_groups_0, pad = efficientnetv2_s_blocks_39_se_conv2d_Conv2Dx_pad_0, pad_type = efficientnetv2_s_blocks_39_se_conv2d_Conv2Dx_pad_type_0, strides = efficientnetv2_s_blocks_39_se_conv2d_Conv2Dx_strides_0, weight = transpose_440_to_fp16, x = efficientnetv2_s_blocks_39_se_Mean_cast);
            tensor<fp16, [1, 64, 1, 1]> efficientnetv2_s_blocks_39_se_mul_1_cast = silu(x = efficientnetv2_s_blocks_39_se_conv2d_BiasAdd_cast);
            tensor<string, []> efficientnetv2_s_blocks_39_se_conv2d_1_Conv2Dx_pad_type_0 = const()[name = tensor<string, []>("efficientnetv2_s_blocks_39_se_conv2d_1_Conv2Dx_pad_type_0"), val = tensor<string, []>("same")];
            tensor<int32, [2]> efficientnetv2_s_blocks_39_se_conv2d_1_Conv2Dx_strides_0 = const()[name = tensor<string, []>("efficientnetv2_s_blocks_39_se_conv2d_1_Conv2Dx_strides_0"), val = tensor<int32, [2]>([1, 1])];
            tensor<int32, [2]> efficientnetv2_s_blocks_39_se_conv2d_1_Conv2Dx_dilations_0 = const()[name = tensor<string, []>("efficientnetv2_s_blocks_39_se_conv2d_1_Conv2Dx_dilations_0"), val = tensor<int32, [2]>([1, 1])];
            tensor<int32, []> efficientnetv2_s_blocks_39_se_conv2d_1_Conv2Dx_groups_0 = const()[name = tensor<string, []>("efficientnetv2_s_blocks_39_se_conv2d_1_Conv2Dx_groups_0"), val = tensor<int32, []>(1)];
            tensor<int32, [4]> efficientnetv2_s_blocks_39_se_conv2d_1_Conv2Dx_pad_0 = const()[name = tensor<string, []>("efficientnetv2_s_blocks_39_se_conv2d_1_Conv2Dx_pad_0"), val = tensor<int32, [4]>([0, 0, 0, 0])];
            tensor<fp16, [1536, 64, 1, 1]> transpose_442_to_fp16 = const()[name = tensor<string, []>("transpose_442_to_fp16"), val = tensor<fp16, [1536, 64, 1, 1]>(BLOBFILE(path = tensor<string, []>("@model_path/weights/weight.bin"), offset = tensor<uint64, []>(38578688)))];
            tensor<fp16, [1536]> const_149_to_fp16 = const()[name = tensor<string, []>("const_149_to_fp16"), val = tensor<fp16, [1536]>(BLOBFILE(path = tensor<string, []>("@model_path/weights/weight.bin"), offset = tensor<uint64, []>(38775360)))];
            tensor<fp16, [1, 1536, 1, 1]> efficientnetv2_s_blocks_39_se_conv2d_1_BiasAdd_cast = conv(bias = const_149_to_fp16, dilations = efficientnetv2_s_blocks_39_se_conv2d_1_Conv2Dx_dilations_0, groups = efficientnetv2_s_blocks_39_se_conv2d_1_Conv2Dx_groups_0, pad = efficientnetv2_s_blocks_39_se_conv2d_1_Conv2Dx_pad_0, pad_type = efficientnetv2_s_blocks_39_se_conv2d_1_Conv2Dx_pad_type_0, strides = efficientnetv2_s_blocks_39_se_conv2d_1_Conv2Dx_strides_0, weight = transpose_442_to_fp16, x = efficientnetv2_s_blocks_39_se_mul_1_cast);
            tensor<fp16, [1, 1536, 1, 1]> efficientnetv2_s_blocks_39_se_Sigmoid_1_cast = sigmoid(x = efficientnetv2_s_blocks_39_se_conv2d_1_BiasAdd_cast);
            tensor<fp16, [1, 1536, 8, 8]> efficientnetv2_s_blocks_39_se_mul_2_cast = mul(x = efficientnetv2_s_blocks_39_se_Sigmoid_1_cast, y = efficientnetv2_s_blocks_39_mul_3_cast);
            tensor<string, []> efficientnetv2_s_blocks_39_conv2d_1_Conv2Dx_pad_type_0 = const()[name = tensor<string, []>("efficientnetv2_s_blocks_39_conv2d_1_Conv2Dx_pad_type_0"), val = tensor<string, []>("same")];
            tensor<int32, [2]> efficientnetv2_s_blocks_39_conv2d_1_Conv2Dx_strides_0 = const()[name = tensor<string, []>("efficientnetv2_s_blocks_39_conv2d_1_Conv2Dx_strides_0"), val = tensor<int32, [2]>([1, 1])];
            tensor<int32, [2]> efficientnetv2_s_blocks_39_conv2d_1_Conv2Dx_dilations_0 = const()[name = tensor<string, []>("efficientnetv2_s_blocks_39_conv2d_1_Conv2Dx_dilations_0"), val = tensor<int32, [2]>([1, 1])];
            tensor<int32, []> efficientnetv2_s_blocks_39_conv2d_1_Conv2Dx_groups_0 = const()[name = tensor<string, []>("efficientnetv2_s_blocks_39_conv2d_1_Conv2Dx_groups_0"), val = tensor<int32, []>(1)];
            tensor<int32, [4]> efficientnetv2_s_blocks_39_conv2d_1_Conv2Dx_pad_0 = const()[name = tensor<string, []>("efficientnetv2_s_blocks_39_conv2d_1_Conv2Dx_pad_0"), val = tensor<int32, [4]>([0, 0, 0, 0])];
            tensor<fp16, [256, 1536, 1, 1]> efficientnetv2_s_blocks_39_tpu_batch_normalization_2_FusedBatchNormV3_nchw_weight_0_to_fp16 = const()[name = tensor<string, []>("efficientnetv2_s_blocks_39_tpu_batch_normalization_2_FusedBatchNormV3_nchw_weight_0_to_fp16"), val = tensor<fp16, [256, 1536, 1, 1]>(BLOBFILE(path = tensor<string, []>("@model_path/weights/weight.bin"), offset = tensor<uint64, []>(38778496)))];
            tensor<fp16, [256]> efficientnetv2_s_blocks_39_tpu_batch_normalization_2_FusedBatchNormV3_nchw_bias_0_to_fp16 = const()[name = tensor<string, []>("efficientnetv2_s_blocks_39_tpu_batch_normalization_2_FusedBatchNormV3_nchw_bias_0_to_fp16"), val = tensor<fp16, [256]>(BLOBFILE(path = tensor<string, []>("@model_path/weights/weight.bin"), offset = tensor<uint64, []>(39564992)))];
            tensor<fp16, [1, 256, 8, 8]> efficientnetv2_s_blocks_39_tpu_batch_normalization_2_FusedBatchNormV3_nchw_cast = conv(bias = efficientnetv2_s_blocks_39_tpu_batch_normalization_2_FusedBatchNormV3_nchw_bias_0_to_fp16, dilations = efficientnetv2_s_blocks_39_conv2d_1_Conv2Dx_dilations_0, groups = efficientnetv2_s_blocks_39_conv2d_1_Conv2Dx_groups_0, pad = efficientnetv2_s_blocks_39_conv2d_1_Conv2Dx_pad_0, pad_type = efficientnetv2_s_blocks_39_conv2d_1_Conv2Dx_pad_type_0, strides = efficientnetv2_s_blocks_39_conv2d_1_Conv2Dx_strides_0, weight = efficientnetv2_s_blocks_39_tpu_batch_normalization_2_FusedBatchNormV3_nchw_weight_0_to_fp16, x = efficientnetv2_s_blocks_39_se_mul_2_cast);
            tensor<fp16, [1, 256, 8, 8]> efficientnetv2_s_blocks_39_Add_cast = add(x = efficientnetv2_s_blocks_39_tpu_batch_normalization_2_FusedBatchNormV3_nchw_cast, y = efficientnetv2_s_blocks_38_Add_cast);
            tensor<string, []> efficientnetv2_s_head_conv2d_Conv2Dx_pad_type_0 = const()[name = tensor<string, []>("efficientnetv2_s_head_conv2d_Conv2Dx_pad_type_0"), val = tensor<string, []>("same")];
            tensor<int32, [2]> efficientnetv2_s_head_conv2d_Conv2Dx_strides_0 = const()[name = tensor<string, []>("efficientnetv2_s_head_conv2d_Conv2Dx_strides_0"), val = tensor<int32, [2]>([1, 1])];
            tensor<int32, [2]> efficientnetv2_s_head_conv2d_Conv2Dx_dilations_0 = const()[name = tensor<string, []>("efficientnetv2_s_head_conv2d_Conv2Dx_dilations_0"), val = tensor<int32, [2]>([1, 1])];
            tensor<int32, []> efficientnetv2_s_head_conv2d_Conv2Dx_groups_0 = const()[name = tensor<string, []>("efficientnetv2_s_head_conv2d_Conv2Dx_groups_0"), val = tensor<int32, []>(1)];
            tensor<int32, [4]> efficientnetv2_s_head_conv2d_Conv2Dx_pad_0 = const()[name = tensor<string, []>("efficientnetv2_s_head_conv2d_Conv2Dx_pad_0"), val = tensor<int32, [4]>([0, 0, 0, 0])];
            tensor<fp16, [1280, 256, 1, 1]> efficientnetv2_s_head_tpu_batch_normalization_FusedBatchNormV3_nchw_weight_0_to_fp16 = const()[name = tensor<string, []>("efficientnetv2_s_head_tpu_batch_normalization_FusedBatchNormV3_nchw_weight_0_to_fp16"), val = tensor<fp16, [1280, 256, 1, 1]>(BLOBFILE(path = tensor<string, []>("@model_path/weights/weight.bin"), offset = tensor<uint64, []>(39565568)))];
            tensor<fp16, [1280]> efficientnetv2_s_head_tpu_batch_normalization_FusedBatchNormV3_nchw_bias_0_to_fp16 = const()[name = tensor<string, []>("efficientnetv2_s_head_tpu_batch_normalization_FusedBatchNormV3_nchw_bias_0_to_fp16"), val = tensor<fp16, [1280]>(BLOBFILE(path = tensor<string, []>("@model_path/weights/weight.bin"), offset = tensor<uint64, []>(40220992)))];
            tensor<fp16, [1, 1280, 8, 8]> efficientnetv2_s_head_tpu_batch_normalization_FusedBatchNormV3_nchw_cast = conv(bias = efficientnetv2_s_head_tpu_batch_normalization_FusedBatchNormV3_nchw_bias_0_to_fp16, dilations = efficientnetv2_s_head_conv2d_Conv2Dx_dilations_0, groups = efficientnetv2_s_head_conv2d_Conv2Dx_groups_0, pad = efficientnetv2_s_head_conv2d_Conv2Dx_pad_0, pad_type = efficientnetv2_s_head_conv2d_Conv2Dx_pad_type_0, strides = efficientnetv2_s_head_conv2d_Conv2Dx_strides_0, weight = efficientnetv2_s_head_tpu_batch_normalization_FusedBatchNormV3_nchw_weight_0_to_fp16, x = efficientnetv2_s_blocks_39_Add_cast);
            tensor<int32, [4]> efficientnetv2_s_head_tpu_batch_normalization_FusedBatchNormV3_perm_0 = const()[name = tensor<string, []>("efficientnetv2_s_head_tpu_batch_normalization_FusedBatchNormV3_perm_0"), val = tensor<int32, [4]>([0, 2, 3, 1])];
            tensor<fp16, [1, 8, 8, 1280]> transpose_491 = transpose(perm = efficientnetv2_s_head_tpu_batch_normalization_FusedBatchNormV3_perm_0, x = efficientnetv2_s_head_tpu_batch_normalization_FusedBatchNormV3_nchw_cast);
            tensor<fp16, [1, 8, 8, 1280]> efficientnetv2_s_head_mul_1_cast = silu(x = transpose_491);
            tensor<string, []> efficientnetv2_s_head_mul_1_cast_to_fp32_dtype_0 = const()[name = tensor<string, []>("efficientnetv2_s_head_mul_1_cast_to_fp32_dtype_0"), val = tensor<string, []>("fp32")];
            tensor<fp32, [1, 8, 8, 1280]> Identity = cast(dtype = efficientnetv2_s_head_mul_1_cast_to_fp32_dtype_0, x = efficientnetv2_s_head_mul_1_cast);
        } -> (Identity);
}